social_computing/deep_graph_library/best_model.pth (torch, 891841 bytes, 8 tensors)

layer1.apply_func.weight f4 [58, 3703]
000000 7f 57 c8 b7 3a b6 94 38 b9 03 26 3c 94 96 50 3c
       -2.3882601e-05 7.091132e-05 0.0101327235 0.012731213
000010 f5 3a 56 3c 66 32 73 3a 93 bc 68 bc 7e 6d 4b 3c
       0.01307558 0.00092772243 -0.014205116 0.012416242
000020 bb 82 68 3c 27 d0 67 3c 3b 84 99 bb c6 02 28 bc
       0.014191325 0.0141487485 -0.0046849526 -0.0102545675
000030 cd 6a 07 bc f7 61 2a 3c 9c 1e dd 3b 28 ef 03 3c
       -0.008265209 0.010399333 0.0067480337 0.008052625
000040 c0 11 e2 3b 5d 22 66 bc d8 92 7c bc 43 00 7e 3c
       0.0068990886 -0.014046279 -0.01541587 0.015502992
000050 87 d3 47 3b 17 92 37 3c d9 db cc 3b ad 25 58 bc
       0.003049107 0.011204264 0.006251794 -0.013192576
000060 18 77 69 bc 21 5b 82 bc 83 6d 42 bc cb 29 3e bc
       -0.014249586 -0.015912594 -0.01186693 -0.011606644
000070 1b f7 29 bc ca 72 f7 3b 5e 04 35 bc a0 76 3d 3c
       -0.010373856 0.0075515257 -0.0110484045 0.011563927
000080 fb db 3c bc fb b2 48 bc 32 42 df bb b4 ae e3 ba
       -0.011527057 -0.0122497035 -0.006813311 -0.0017370791
000090 c9 de 89 3b 87 0a ec bb 76 ba 4b bc f5 b7 88 3a
       0.0042074663 -0.0072034034 -0.0124345925 0.00104308
0000a0 4f 2d f4 bb b7 fb 07 bc ee a0 11 3a 8b 2a 20 3b
       -0.0074516903 -0.00829976 0.00055552914 0.002443942
0000b0 2c bf 78 bc 2b 94 85 3c 00 9a 86 bc 7f 35 38 3b
       -0.015182298 0.016306004 -0.016430855 0.0028108058
0000c0 19 25 12 3b 8d a7 d7 3b 91 13 a4 bb 19 bb 84 3c
       0.0022299944 0.006581253 -0.0050072153 0.016202496
0000d0 ed c9 5f 3b 12 f8 bf bb e1 70 6f 3c 51 a4 34 bb
       0.0034147457 -0.0058584297 0.014614315 -0.002756376
0000e0 d3 cb 7a 3c 25 16 9c bc e5 30 3a bc de ac b5 bb
       0.015307385 -0.019053528 -0.011364196 -0.005544289
0000f0 cf 7f 4a 3a 56 69 15 bc db 6e 85 bb 25 72 4e bc
       0.00077247334 -0.009119352 -0.004072053 -0.012600456
000100 7c 36 48 3c 8e 8a b4 3d 77 82 5a bc 5b 1e 8f 3c
       0.012220021 0.0881549 -0.013336769 0.01747053
000110 4b 18 3f 3b 89 10 3f 3c 30 01 2a 3c e1 71 8e ba
       0.0029158767 0.011661657 0.01037626 -0.0010867679
000120 a0 9f ff 3b 6c c6 d1 bb c5 a6 73 bc 37 98 08 3b
       0.007801011 -0.0064018276 -0.014871304 0.002084268
000130 d9 98 3b 3c 69 b9 8f bb c7 34 6a bc 5e 19 bc 3b
       0.011450016 -0.0043861163 -0.01429481 0.0057403287
000140 ad 75 7d 3c 3c e6 6c 3c 70 12 8a bc 03 ed 21 bc
       0.015469951 0.014459189 -0.016854495 -0.009883168
000150 34 46 60 bc 7e 97 23 3b 34 d9 75 bc b4 e7 66 3c
       -0.013688613 0.0024962123 -0.015005399 0.014093328
000160 cc 04 6c bc 60 a1 c2 bb 9e 0d 69 bc 28 35 22 bc
       -0.014405441 -0.0059396476 -0.014224438 -0.009900369
000170 09 32 3e bc 0e 13 82 3b 7e 6e 45 3c 14 c8 88 bc
       -0.011608609 0.0039695567 0.012050269 -0.016696967
000180 e6 25 2e bc ca b9 1e 3b 0e c4 81 3c 05 6c 62 3b
       -0.010629153 0.0024219626 0.015840556 0.0034549248
000190 f3 f9 19 bc 96 50 d8 bb ba c1 c2 bc d7 b2 f2 bb
       -0.009397971 -0.0066014035 -0.023774017 -0.0074065733
0001a0 0d 8f 38 3c b9 56 1c ba 12 a1 8c 3b 8d 88 29 3a
       0.011264575 -0.00059638504 0.004291662 0.0006467186
0001b0 8b 38 9c b9 76 1d 8f 3c 42 2b a6 bb ee 90 dd ba
       -0.00029796766 0.017470103 -0.0050710747 -0.0016904154
0001c0 15 f6 ba 3a 8d 58 27 3c 57 99 43 bc c5 59 74 3c
       0.0014264012 0.010213983 -0.011938415 0.014913981
0001d0 ea 22 3d 3c 19 e1 99 ba e2 f6 6f bc 63 39 41 bb
       0.011543969 -0.0011740058 -0.014646264 -0.0029483668
0001e0 89 02 0c bc 7f 8e 5e 3c 22 b5 18 3c 2a 65 8b 3c
       -0.008545526 0.013583778 0.009320529 0.017016012
0001f0 b4 be f4 ba 9f 55 18 bc d0 d7 a9 3a 3b f0 7b 3c
       -0.0018672557 -0.009297757 0.0012957994 0.0153771
000200 a2 ee bb 3b 2e ee 06 3c 34 ff 03 3c 33 f7 18 bc
       0.0057352344 0.008235497 0.008056451 -0.009336281
000210 56 ea 1c 3c de 49 2a 3c 89 bf c9 3b c4 45 5c 3c
       0.009577354 0.010393588 0.006156866 0.013444368
000220 9c bd 57 3c cc 90 17 bc 2f 71 33 bc cf 21 de 3a
       0.013167765 -0.009250831 -0.010952278 0.0016947332
000230 4b 17 75 bc 8f 4f 01 bb 97 d4 21 3c 07 98 53 3c
       -0.014959167 -0.0019731259 0.0098773455 0.012914664
000240 8d d5 85 3c 93 49 21 3c 14 de aa 3b a0 38 08 bc
       0.01633718 0.009844202 0.005214462 -0.008314282
000250 62 22 77 3c b8 a6 11 3c bf 6b 46 bc fa 54 63 bb
       0.015083881 0.0088898465 -0.01211065 -0.00346881
000260 a9 b6 30 bc 1b f7 89 3b 4c aa c5 bb 80 a9 f0 3a
       -0.010785737 0.0042103655 -0.006032264 0.0018361062
000270 9d 7b 18 3c 45 56 77 3b 6e 94 59 bc c9 0d b6 3b
       0.009306815 0.003774063 -0.013280017 0.0055558425
000280 4a 51 b3 b9 a9 84 ce 3b 1f 95 d0 3b ce 6d 10 3c
       -0.00034202106 0.0063024354 0.006365433 0.008815242
000290 45 0b 30 3c c5 51 53 3c 65 d3 11 bc 71 5f 1d bb
       0.010744874 0.012897913 -0.008900498 -0.0024013186
0002a0 fd b4 7f 3b 15 f8 48 3c 5c c2 cb 3b 5a 88 ab bb
       0.003901779 0.012266179 0.006218238 -0.00523476
0002b0 d4 2e 06 3c 3c c1 48 bc f1 0c 64 3c 07 85 b6 3b
       0.008189876 -0.012253102 0.013919101 0.0055700573
0002c0 ee ee dc 3a 88 38 9a 3c 36 2d 6f 3a 96 94 ba 38
       0.0016855875 0.018825784 0.00091238634 8.8968474e-05
0002d0 35 ac 56 bc f6 df 4d 3c 04 72 43 3b 6d 58 50 bc
       -0.013102581 0.0125656035 0.0029822597 -0.012716395
0002e0 f7 42 2f bb 62 51 60 3b 74 87 14 bb 7c ee 25 3c
       -0.0026742795 0.0034228195 -0.0022663744 0.01012766
0002f0 c5 e6 d0 3b ae 2e 51 b9 26 9c 3c bc 17 68 33 bb
       0.006375166 -0.00019949183 -0.011511838 -0.0027375275
000300 d7 7d ab 39 42 62 67 bc 20 12 58 3c e6 4e 53 3c
       0.0003270942 -0.014122548 0.013187915 0.012897229
000310 bf 3a 6b bc c5 76 dc 3a 3f 6f 7b 3c 44 a1 40 3c
       -0.014357268 0.0016820064 0.015346347 0.011757199
000320 c9 55 16 3c 68 d9 1f 3b 95 7e 7d 3a 74 bc 24 3c
       0.009175726 0.0024391059 0.0009670046 0.010054696
000330 cb 55 9a 3b 9b a8 83 bc 53 a9 47 bc 4d c5 4f 3c
       0.0047099344 -0.016071608 -0.012186366 0.0126813175
000340 ef 74 0d bc 12 5c b3 bb 7d 89 88 3b 71 21 c0 bb
       -0.008633836 -0.005473622 0.0041667805 -0.0058633615
000350 15 5b c9 bb e5 cc bd 3b f9 4c 1e 3c b4 bb 4b bc
       -0.006144891 0.0057922476 0.009661906 -0.012434889
000360 2f 6a bb 3b 64 aa 20 3c 71 64 12 3c 53 52 07 3c
       0.005719445 0.009806249 0.00893508 0.008259374
000370 b2 e5 fe bb ca 87 14 bb f1 5a f6 ba c6 7e bd bb
       -0.0077788467 -0.0022663944 -0.0018795413 -0.005782935
000380 be b4 34 bc ab e3 2e bc ee 81 0e bc 35 0f 4d bb
       -0.01102942 -0.010674397 -0.00869797 -0.0031289582
000390 55 7a 08 bb 36 e9 76 3c 0d f3 13 bc 90 14 05 bb
       -0.0020824869 0.01507025 -0.009030116 -0.0020306446
0003a0 1a c4 0c bb 72 9b 2d bc 04 48 89 bc 54 cb 71 bc
       -0.002147919 -0.010596143 -0.016757973 -0.01475795
0003b0 bf 31 14 bc 6a fa 8c bc 35 2e 06 3c f0 bd f6 3b
       -0.0090450635 -0.01720925 0.008189728 0.0075299665
0003c0 d1 65 62 bc 4f 6c 76 bc f1 7f 92 3b a5 fe 69 bc
       -0.01381822 -0.015040471 0.004470818 -0.014281903
0003d0 93 34 48 3c 69 fc 49 bc 8f 1e c9 ba c6 90 46 3b
       0.012219566 -0.012328246 -0.001534419 0.0030298694
0003e0 19 d9 62 3a 0c 51 6b bc d1 91 5b bc ef 10 8f bb
       0.0008653566 -0.014362585 -0.013401465 -0.0043660323
0003f0 77 aa 97 3b 19 e8 80 bb 71 57 4e bc c2 7b 62 3a
       0.0046284753 -0.003933918 -0.01259409 0.0008639657

layer1.apply_func.bias f4 [58]
000000 75 40 a7 bd a2 98 e2 bd fa dd 04 be 11 4a 3c 3d
       -0.08166591 -0.11064269 -0.12975302 0.045969073
000010 49 e3 ed 3c c0 d9 ff bc 45 f5 45 3d 11 b2 66 3d
       0.029039042 -0.031231761 0.04832961 0.05632216
000020 25 ea 63 bd dc 3f 4b 3d ca 80 e2 bc 3b 15 a3 3d
       -0.05564322 0.049621448 -0.027649302 0.07963034
000030 0f e2 84 bc fd c6 52 bd 40 44 03 be f6 fe 2e 3c
       -0.016221074 -0.0514593 -0.12819004 0.010680905
000040 65 c6 ac 3a 7a 77 e5 3c e0 39 bd bd 5f 85 a0 bd
       0.0013181685 0.028011072 -0.092395544 -0.078379385
000050 42 1c 07 3d 69 1c 09 bd ba 66 54 3d 91 18 98 bc
       0.032985933 -0.03347436 0.05185578 -0.018566402
000060 63 65 a2 bc e9 df 8f bd c7 99 0d 3d af 30 56 bc
       -0.019823736 -0.07025129 0.03457048 -0.0130731305
000070 9b 11 c9 bd 3f 22 48 be f3 32 ef bd a7 8d 4f bd
       -0.09817811 -0.19544314 -0.1167964 -0.0506722
000080 3a 6d a7 bd f7 43 7f bd 66 04 d3 bc 82 e8 99 bd
       -0.0817513 -0.062320676 -0.025758933 -0.075150505
000090 f9 d3 25 3d 99 9f a7 3d d4 56 8f 3c b2 a9 49 3d
       0.040485356 0.08184738 0.017497458 0.0492341
0000a0 bf a0 56 bc f6 d0 9b bd ca 5a 2f be 78 bd 19 3d
       -0.013099848 -0.076082155 -0.17124477 0.037534207
0000b0 66 e7 3c bd 55 2f c5 3c d1 91 9e bd 60 c6 b3 bd
       -0.046119116 0.024070421 -0.07742656 -0.087780714
0000c0 c7 a2 56 3d 3c 24 98 3c b6 d4 52 bd 2f 89 5b bd
       0.05240133 0.018571965 -0.05147239 -0.053597625
0000d0 88 36 13 bd d0 c5 af 3b bf e1 8b bc 05 67 43 be
       -0.035940677 0.0053641573 -0.017075418 -0.19082268
0000e0 40 f9 b2 3d 39 f7 4f bd
       0.08738947 -0.05077288

layer2.apply_func.weight f4 [58, 58]
000000 72 44 9c bd 5e d3 e0 bc a2 86 d5 3c 9c fc a0 bd
       -0.076302424 -0.027444538 0.026065174 -0.078606814
000010 e0 12 29 bd a8 3e c0 3d 38 6d 54 3d 92 58 ea bd
       -0.041277766 0.09386951 0.05186197 -0.11442675
000020 2e fe 8c bc 52 31 36 bd 25 b9 75 bd 2b e6 f6 3d
       -0.017211046 -0.04448063 -0.05999102 0.1205562
000030 79 35 81 bd 66 02 14 bd a7 93 90 bd c2 b4 27 be
       -0.06309027 -0.0361351 -0.070594124 -0.16377547
000040 16 99 8f 3b 22 a7 93 bc d0 d3 95 bd 80 53 64 bd
       0.004382263 -0.018024031 -0.07315791 -0.055743694
000050 fb 92 d7 3c 9d 86 36 3c 44 2b f5 3b ec 5b e5 bd
       0.026315203 0.011140493 0.0074819643 -0.11199173
000060 41 ed 79 3c bc e7 8c bc 4a 85 0c be ab e5 f2 3d
       0.01525432 -0.017200343 -0.1372272 0.11860212
000070 6b 03 8c 3d ee 73 8c bd c2 34 0b 3c 1a a8 ad bd
       0.068365894 -0.06858049 0.008496465 -0.084793285
000080 a5 8d ef 3d 86 38 bd 3c 9f 4b 01 be fc 9e ce bc
       0.116969384 0.023098242 -0.12626503 -0.025222294
000090 b8 d2 7a bc 93 98 f8 bd 33 16 8e 3c 58 58 17 be
       -0.015309028 -0.12138476 0.01734457 -0.14779794
0000a0 60 39 0d bb 13 61 03 be cc c5 f6 3d 22 81 f3 bd
       -0.002154909 -0.1283 0.120494455 -0.118898645
0000b0 94 79 76 3d 80 71 ac bd cf 64 a2 3d fd 3a 9b bd
       0.06017454 -0.08420086 0.07929384 -0.075796105
0000c0 04 67 12 3e 76 f1 c3 3d 6a 7d 8d bc 6c a3 32 bd
       0.1429711 0.095675394 -0.017271716 -0.043612882
0000d0 2e 5d 57 bd 50 c4 ca bd 8c 51 07 bd 0e 14 78 bd
       -0.052579097 -0.09900725 -0.033036754 -0.060566
0000e0 00 90 64 bb 70 d4 9e 3d ef 0b 8a bd 77 d2 0f bd
       -0.003487587 0.07755363 -0.067405574 -0.035112824
0000f0 18 1d e7 bd ec 03 c3 bd 83 d3 c7 bd 5a 7a 6f 3d
       -0.11284846 -0.095222324 -0.097571395 0.058466293
000100 bf a9 82 bc 3b a5 38 3b 40 99 34 bd c9 cd 1e bd
       -0.015950082 0.0028174657 -0.044091463 -0.03877047
000110 0a 70 58 bd ba 94 19 bd 13 45 03 3e 36 76 76 bd
       -0.052841224 -0.037495352 0.12819318 -0.06017133
000120 80 ab e7 bd 29 c9 7b 3d a1 52 a4 3c 06 5b c5 bd
       -0.11312008 0.06147114 0.020058932 -0.09636502
000130 85 23 25 bc 63 66 67 bc 67 6a cf 3d 9e 9d 4f 3d
       -0.010079269 -0.014123532 0.101277165 0.050687425
000140 89 83 a5 bc b3 aa 49 bd 3c 17 e8 3c e9 2d 3b bd
       -0.020204322 -0.049235057 0.028331392 -0.04569808
000150 75 a4 8e bc ca 35 53 3d 6b 78 b2 3d 51 c4 bd 3d
       -0.017412404 0.05156497 0.08714374 0.0926596
000160 e8 38 4a bd fb c9 0d bc 86 5c 89 3d 4d a2 4a 3c
       -0.049370676 -0.008654113 0.067071006 0.012367797
000170 6d 49 b9 3d 3d 29 d2 3d d1 2d c7 3d 9f 80 84 bd
       0.09047208 0.10261772 0.09725536 -0.06469845
000180 27 41 a7 3d bd 8f 83 bd d1 66 f6 bd 7d 62 a6 bd
       0.08166724 -0.064239 -0.120313294 -0.08124254
000190 52 0e da 3c 07 71 e3 bd 62 49 52 3b 80 cf 9c 3d
       0.026618157 -0.11105543 0.0032087197 0.07656765
0001a0 a7 dc 18 3c 3d 8d 11 bd e8 da d4 3d 19 40 36 bd
       0.009329951 -0.035535086 0.103933156 -0.044494722
0001b0 47 6f 31 bd 5d c7 d9 3d fc ae 44 3d b8 0e e8 bc
       -0.043319013 0.10633729 0.04801844 -0.028327331
0001c0 5d b3 99 3d 0c 1a 97 bc ce e6 80 bd fe 40 89 3d
       0.07504914 -0.018445037 -0.062940225 0.067018494
0001d0 dc 22 ba bd 1a 46 f6 bb fa 3e db 3d f6 98 ba bc
       -0.0908868 -0.007515681 0.10705371 -0.022778016
0001e0 64 3a 78 3d 29 37 81 3d f3 db e6 bd b3 ba d1 3d
       0.06060256 0.06309349 -0.11272421 0.10240688
0001f0 a4 39 90 3d a0 3f 90 bc a2 4c 6f bd 84 3a a8 bd
       0.07042244 -0.017608464 -0.058422692 -0.08214286
000200 a8 99 e3 3d f6 d4 b3 3d 76 22 be bd b8 8a ec 3d
       0.11113292 0.087808535 -0.09283917 0.11549896
000210 35 32 f8 bd 76 f7 13 3b 21 8b 4e bd ae ba e5 bc
       -0.12118951 0.0022577918 -0.050425652 -0.028043117
000220 c0 0d 03 3e 97 f3 6e 3d 28 2a d3 bd 5e 8e 3e 3d
       0.12798214 0.058337774 -0.10310775 0.04652249
000230 53 f8 c9 bd 0e 9a 9a bd 3a 05 02 be 6a 3f e6 3d
       -0.09861817 -0.07548915 -0.12697306 0.11242564
000240 c5 e5 90 3d f5 73 9b bd 17 8b d9 3b b4 79 61 bd
       0.07075075 -0.075904764 0.0066388953 -0.055047706
000250 99 ec ee 3c 2a 57 40 3d a3 76 23 3d e9 de 34 bd
       0.029165553 0.046958126 0.039908063 -0.044157896
000260 96 20 df bd 30 52 c1 bd 6f 56 bd 3d 19 4b 3b 3d
       -0.10894887 -0.09439504 0.092450015 0.045725916
000270 d0 d0 e4 3b 9e 6b 96 bc 4b fb 8f 3d c1 0f 02 3d
       0.0069829 -0.018361863 0.07030352 0.031753305
000280 36 b0 61 bd b9 d3 c8 bd bd 91 88 3d 96 b3 b4 bd
       -0.05509969 -0.09806008 0.06668422 -0.08823316
000290 59 88 96 bd fd eb 0b bc ae 8a 55 bd 86 74 2b 3a
       -0.07350225 -0.008540151 -0.05213421 0.00065404957
0002a0 10 7d c9 bd 87 5c 99 3d a1 e6 97 bd 48 50 80 bd
       -0.09838307 0.07488351 -0.07417036 -0.062653124
0002b0 68 16 fd bd 98 e4 04 3e b8 85 88 3c cd 43 ca bd
       -0.12357789 0.12977827 0.016665325 -0.09876213
0002c0 ea b0 91 3b df bc a3 bd 20 55 fe bd 15 a4 c9 bc
       0.0044461386 -0.07995009 -0.1241858 -0.024614373
0002d0 aa c4 1b bd 40 07 cc bd 8e 80 6c 3d d3 ad 1f 3d
       -0.03802935 -0.0996232 0.057739787 0.03898413
0002e0 ba 82 04 3e 19 1b 16 be 35 e8 30 bd ba 96 3d 3c
       0.12940493 -0.14658774 -0.0431902 0.011571581
0002f0 c8 2c dc bd ae 78 af 3d 1e f8 09 3d e9 d0 85 bd
       -0.10750729 0.0856794 0.03368389 -0.06533987
000300 4d 49 bc bd d4 8a 87 bd 92 51 6e bd 41 e7 be 3c
       -0.091936685 -0.06618276 -0.05818326 0.02330363
000310 bd 5d b3 3d 8a e2 7c bd 81 71 a6 3d cb 60 88 3c
       0.087581135 -0.061739482 0.08127118 0.016647717
000320 ed 54 7e 3c d5 16 79 bd 92 3b 1b 3c af 46 15 bd
       0.015523178 -0.06081279 0.009474652 -0.036444362
000330 8e 37 46 3c a1 e9 4c bc c0 e3 f5 bd 12 36 27 bd
       0.012098206 -0.012506873 -0.120063305 -0.04082305
000340 a9 9a ea 3c a6 a3 b7 bd 1f 59 b3 bc 95 29 f6 bd
       0.0286382 -0.0896676 -0.021893082 -0.1201965
000350 43 7e 77 bd 8e 2b 77 bd 7d f4 e2 bd 03 e9 05 3d
       -0.060423147 -0.06034427 -0.11081789 0.03269292
000360 44 3f d6 3d db 32 dd bd 98 ec bf bc 0a 3c c5 3d
       0.10461286 -0.108007155 -0.023428246 0.09630592
000370 0b 87 9c bd ed b4 62 3d 04 d1 fe bc 80 87 e6 bd
       -0.07642945 0.055348326 -0.031105526 -0.11256313
000380 6b f8 5e bd a6 68 db bd d5 65 f0 bc 39 a7 13 3d
       -0.05443613 -0.107133195 -0.029345432 0.036048148
000390 af 8d ae bc f8 ef b8 3d e6 75 56 3c 36 20 dd 3d
       -0.021307794 0.090301454 0.013089633 0.107971594
0003a0 dc 46 18 bc 73 e8 8f bd c3 93 81 3d e3 a8 a0 bd
       -0.009294238 -0.07026758 0.063270114 -0.078447126
0003b0 3d 3c 91 bd 42 fb c7 3d 4e d3 6f bc 76 af d0 3d
       -0.07091568 0.097647205 -0.014637781 0.101897165
0003c0 23 66 20 bd 24 66 56 bd ce 16 f9 3d 72 fa be bd
       -0.039159905 -0.052343503 0.12162553 -0.093251124
0003d0 d7 7a b9 bd 5e 47 85 3d 60 7e 70 bd 4c 9f 52 bc
       -0.09056633 0.06507753 -0.05871427 -0.012855362
0003e0 79 39 ca 3c 21 e1 9d bd d3 f2 38 3d 90 1c f5 3d
       0.024685608 -0.077089556 0.04515345 0.119683385
0003f0 ec 13 5e bd 34 21 9b bd 25 99 46 bd 71 8c de bd
       -0.054218218 -0.07574692 -0.048485894 -0.10866631

layer2.apply_func.bias f4 [58]
000000 9c 7e 34 3e 35 d0 d2 bc c7 bd 60 3d f9 92 87 bd
       0.17626423 -0.025734046 0.054868486 -0.0661983
000010 17 01 79 3d 13 22 2d 3d 26 22 23 3e a9 50 bf bd
       0.060792055 0.042268824 0.15930995 -0.093415566
000020 91 77 c7 3b dc 7f 62 bd e9 f2 90 bd 13 cb 7d 3c
       0.0060872515 -0.055297717 -0.070775814 0.015490311
000030 04 df ef bd 58 50 06 3c 7d 9e c5 3d ec e8 02 be
       -0.11712459 0.008197866 0.0964937 -0.12784165
000040 0f a4 7d bd 6f bf fb bc 0c 0c f7 3d c5 d0 c9 3d
       -0.061924037 -0.030730931 0.12062845 0.09854273
000050 5d 66 77 3c 43 d1 e6 bd 17 48 81 3d 3d 4d 10 3e
       0.015100089 -0.11270382 0.06312578 0.14091964
000060 6f 80 0a 3e a9 69 af bd 4e 13 e1 3d 7f 20 4b bd
       0.13525556 -0.08565075 0.1099001 -0.049591538
000070 ce fe 7b bd 77 79 dc bd 30 8c 96 3d 80 48 d8 bd
       -0.061522298 -0.10765355 0.073509574 -0.10560703
000080 a2 33 db bc 64 5f c5 3c b7 38 e0 bd a5 ee 13 3d
       -0.026758019 0.024093337 -0.109483175 0.03611626
000090 6c 61 52 bd 74 66 be 3c 3b 5f 8f bc f7 0e b6 3d
       -0.05136244 0.023242213 -0.017501464 0.08889573
0000a0 aa 93 01 3d df 22 73 bd 95 9a 08 3d d2 8c 15 3e
       0.031634964 -0.059359428 0.033350546 0.146045
0000b0 b9 93 cd bd 93 89 f8 3c 1d 53 15 bc 05 a7 b9 bd
       -0.100379415 0.030339038 -0.009114054 -0.090650596
0000c0 2a 76 00 3d ac 97 31 3d 08 eb 5b bd 73 8a eb 3c
       0.03136269 0.043357536 -0.05369094 0.028752541
0000d0 7a d4 e5 3d a4 64 94 3d 4e fe 96 3d 8f 78 b0 bd
       0.11222167 0.07245758 0.073727235 -0.08616745
0000e0 7a ff 05 be 4c 42 5c bd
       -0.13085738 -0.053774163

layer3.apply_func.weight f4 [58, 58]
000000 6e 95 c0 bd 4e c2 8a bd c1 3d b3 bd a3 56 78 bc
       -0.094035015 -0.06775342 -0.08752013 -0.015157375
000010 54 bc 96 bd 97 9e 33 bc 94 72 d7 bc e8 75 d5 bd
       -0.073601395 -0.010963104 -0.026299752 -0.104228795
000020 3b cd ff 3d 06 d4 95 3d 64 8b ef bd 61 8d a9 bd
       0.124903165 0.07315831 -0.116965085 -0.08278919
000030 a1 31 f2 bd 9c 1e 02 bc 45 a8 bf bd a6 4c ee bd
       -0.11825872 -0.007941868 -0.09358267 -0.11635713
000040 b3 63 ba bd d0 85 78 3d 1d eb 1a 3d ed ec d4 bc
       -0.09101047 0.06067449 0.037821878 -0.025991881
000050 56 d3 24 bc 5b da 65 3d fc a6 71 3d c5 b3 04 be
       -0.010060152 0.056116443 0.05899714 -0.12959202
000060 84 c8 85 3d af 41 e3 3d a2 d4 95 3d bb 0b e5 bd
       0.06532386 0.110965125 0.07315947 -0.11183878
000070 2b cb b2 bd a9 d1 51 bc e0 10 05 be c3 72 0b bd
       -0.087301575 -0.0128063345 -0.12994719 -0.034044992
000080 31 ef d6 bd 60 64 a0 3d 9d 87 66 3d 3e 72 28 3c
       -0.10494841 0.07831645 0.056281675 0.010281144
000090 f5 dd 5b bd 65 8f f0 bc a0 ef 2b bd 0f 1c e9 3d
       -0.05367847 -0.02936525 -0.04197657 0.11382305
0000a0 f0 85 8f bd e6 a8 fb bd c1 b7 63 bb e6 12 b0 bd
       -0.070079684 -0.12288074 -0.0034746977 -0.085973546
0000b0 87 26 c4 bd eb 3c b6 bd fe aa ae bc 0d b6 52 bc
       -0.09577661 -0.08898338 -0.02132177 -0.012860787
0000c0 5f 2e d1 3d 82 58 24 3d 7d 05 79 bd 48 0c e4 bc
       0.10213923 0.04012347 -0.06079625 -0.027837887
0000d0 bb 2c b8 bd 63 b5 05 3e da 3d b1 bc 1e 12 f5 3d
       -0.08992907 0.13057475 -0.021635938 0.11966346
0000e0 8a 69 52 3d ce 99 85 3d f1 ce 42 bd f3 80 03 3c
       0.05137018 0.065234765 -0.047560636 0.008026349
0000f0 24 ce c9 bd 84 73 57 3d 4b 92 d1 bd f4 a5 f3 bc
       -0.09853771 0.0526004 -0.10232981 -0.029742219
000100 e1 cd 97 bd e8 67 00 bd 7f 84 e2 bd fd cc e4 3d
       -0.07412315 -0.031349093 -0.11060428 0.11171911
000110 03 8f 2b 3d cb 80 03 3c ce 05 ed bd 42 51 dc 3d
       0.041884433 0.008026312 -0.11573373 0.10757686
000120 85 64 79 3b 72 34 b5 3d 67 cd db 3d 38 2e e5 bd
       0.00380543 0.08847894 0.10732537 -0.11190456
000130 48 ad 55 3b a3 02 ff bb e4 ff 96 3c a2 60 ad 3d
       0.0032604504 -0.0077822967 0.018432565 0.08465697
000140 3d ad a5 3c 7a c8 26 bd 3a 18 19 bd b3 da 64 3d
       0.020224208 -0.040718533 -0.03737662 0.05587263
000150 8d cc 99 bd 81 57 35 bd 16 56 06 be b2 a0 75 3d
       -0.07509718 -0.044272903 -0.13118777 0.059967704
000160 4d d1 7a bd ae 7e 03 bc 66 10 e9 3d 93 32 eb bd
       -0.06123476 -0.008025808 0.11380081 -0.11484256
000170 13 cc ed 3d f5 25 88 3d 63 9b 26 bc 1f 64 99 bd
       0.1161119 0.06647865 -0.010168883 -0.074898
000180 0a fe 11 3d 83 68 19 bb 47 c1 d0 bd b8 9f ca 3c
       0.03564266 -0.002340824 -0.10193115 0.024734363
000190 bb ff cf 3d 62 fb cb bc c2 31 84 bd 7e 0f 09 3d
       0.101561986 -0.024900142 -0.06454803 0.03346204
0001a0 47 75 bb bc 13 87 04 bd e2 e2 93 3d e2 71 b9 bd
       -0.02288307 -0.03235538 0.07221009 -0.090549245
0001b0 13 0e dc 3d b0 2e a7 bb 62 32 c1 3c 22 63 99 bd
       0.10744872 -0.005102001 0.023583595 -0.07489611
0001c0 ad 79 ee bd c1 18 7d 3d 41 82 ea 3d 77 07 fe bd
       -0.116443016 0.061791185 0.11450625 -0.124037676
0001d0 30 b6 b1 3c 6c 50 0f bc e3 84 06 3c 6f 02 a0 3d
       0.02169332 -0.008747201 0.008210394 0.07812964
0001e0 e5 cd a3 3c 30 ab f6 bd ef 38 1a bd b4 a7 fc bd
       0.01999564 -0.1204437 -0.037651952 -0.12336674
0001f0 3e 9a 53 bd 0a d1 e2 bd 5e 7e 82 bd de a1 da 3d
       -0.05166077 -0.11075027 -0.06371759 0.10675405
000200 ff 18 ff ba 86 79 fd 3d b4 8a c1 bd 74 c2 f7 3d
       -0.0019462405 0.123766944 -0.09450284 0.12097636
000210 fc a1 3a bc 9e b7 c1 3d ac 18 09 3e 4d e4 11 3d
       -0.011391159 0.0945885 0.13388318 0.035618115
000220 8c 80 3b bd ed 3a b7 bc bf a1 2b 3d 0b 28 4d bd
       -0.04577689 -0.022366965 0.0419023 -0.050087016
000230 79 ef 96 3b db c8 fe bb 26 78 1d bc 22 a7 99 bc
       0.004606184 -0.0077754087 -0.009611165 -0.018756453
000240 81 fc d7 3b b7 62 cd 3d 93 c1 7b bd 69 b9 8b bd
       0.00659138 0.10028594 -0.061463904 -0.068224736
000250 d3 d5 9f 3d c5 dc 53 bc 5a 7b e8 3d 24 8e 1d 3c
       0.078044556 -0.0129310535 0.113516524 0.0096164085
000260 2b 2f 8a bd 01 f3 e0 3d c3 28 c5 bd fd 12 e4 bc
       -0.06747278 0.10983849 -0.09626915 -0.027841086
000270 5e ec 01 3e 52 a4 7b bd 45 cc 86 bd 2e 40 24 3d
       0.12687823 -0.061436005 -0.0658193 0.04010027
000280 8b 99 b1 3d f6 58 8d 3d 81 64 f1 bd a9 bf 87 3d
       0.08671864 0.069017336 -0.11786748 0.06628353
000290 f1 1a 57 3d 6c f0 ec bd c8 57 dd 3d 10 a7 15 bd
       0.052515928 -0.11569294 0.108077586 -0.036536276
0002a0 a0 f0 0b 3e 71 0b b1 bd 83 83 4a 3d f8 96 94 bd
       0.1366601 -0.086447604 0.049441826 -0.072553575
0002b0 7f 73 57 bd 12 31 81 bd 41 3b 39 3c d2 f7 d1 bc
       -0.05260038 -0.063081875 0.011305631 -0.025630865
0002c0 06 4c 81 bd 84 6d ec 3d a7 54 86 b8 18 e9 a7 bc
       -0.063133284 0.11544326 -6.405386e-05 -0.02049689
0002d0 bf 74 6b bd 68 77 52 3d 26 c7 21 bd f6 34 0b 3d
       -0.057484385 0.051383406 -0.039496563 0.033986054
0002e0 5d b8 9c bb 0b 99 94 3d 5a fe d9 3d 97 10 51 bd
       -0.00478272 0.07255753 0.10644217 -0.051041212
0002f0 7e 11 c7 bd 74 4d 7f 3d c0 f4 b0 3d fe aa 08 bd
       -0.09720133 0.062329724 0.08640432 -0.033366196
000300 e9 74 82 bc e0 bf db bd 04 09 63 3d 52 6f a0 bd
       -0.015924888 -0.107299566 0.05542852 -0.07833733
000310 e7 cc 07 bc 69 40 de 3d 63 5b 21 bd 6c a9 f3 3c
       -0.008288599 0.10852129 -0.039393794 0.029743873
000320 b1 b0 3c 3d ec 83 a3 3d 39 97 50 3d 72 e2 9e bd
       0.046066944 0.079841465 0.050925467 -0.07758035
000330 91 d4 ca 3a 15 04 a7 3c 31 41 bf bd 39 8c f5 bd
       0.0015474727 0.020387689 -0.09338606 -0.11989636
000340 a3 ea 87 3d eb a3 72 bd 3a 09 8a bd d0 d9 fe 3d
       0.0663655 -0.059238356 -0.06740041 0.12443888
000350 c3 59 ee bd 1b d4 3c 3d 60 f5 44 3d b0 5f 54 3d
       -0.116382144 0.046100717 0.04808557 0.051849067
000360 13 af 68 3d 43 90 4e bd 75 78 51 3d 24 5f 0d be
       0.05680759 -0.050430547 0.051140267 -0.13805825
000370 72 b9 19 3d 72 a7 c4 bb 28 d9 c8 3d 9e a3 43 3d
       0.03753037 -0.0060014063 0.09807044 0.04776346
000380 87 cd bb bd e9 9a d9 3d 03 71 6d bc b5 52 dd 3a
       -0.091700606 0.1062525 -0.014492276 0.001688561
000390 8e a9 f5 3d 3e 49 25 3c 3a f4 98 bd cd 85 d4 bd
       0.119952306 0.010088263 -0.074684575 -0.10377083
0003a0 c2 cc e5 bd d2 c1 a8 3d c9 98 56 3d 4d df ad bd
       -0.11220695 0.08240093 0.0523918 -0.08489857
0003b0 a8 ff 78 bc 5c 28 e0 3d be de e6 3d 34 c3 e0 3c
       -0.015197672 0.10945198 0.112729535 0.02743683
0003c0 86 a8 9d 3d 1e 82 f9 bd 0c 8b ba 39 a3 94 e2 3d
       0.07698159 -0.12183021 0.00035580283 0.110635065
0003d0 e7 b1 1e 3d c6 2c e7 3b 4c 8d 8d bd f6 5e 42 bc
       0.03874388 0.007054898 -0.06911716 -0.011863461
0003e0 0c 43 93 bd ec a5 f0 3d fc 35 2e 3d b7 1f 34 bd
       -0.071905226 0.11750397 0.042531952 -0.043975558
0003f0 48 e6 b7 3d 6c 96 d6 3d 43 ca 30 bc f3 cf 24 3d
       0.089794695 0.104779094 -0.01079041 0.04023738

layer3.apply_func.bias f4 [58]
000000 de 3d 65 bd 6e 3b e4 bd c8 25 2b 3e c7 3a 0b 3d
       -0.055967204 -0.11144148 0.16713631 0.0339916
000010 d0 ad d2 bd d0 c4 a8 3d 2e 31 ed 3c 5b b5 b5 3d
       -0.10287058 0.08240664 0.028954115 0.088724814
000020 d1 50 1e 3e 83 ba 51 bd 8c ea b2 3d 58 33 cf bc
       0.15460517 -0.051203262 0.087361425 -0.025293037
000030 f4 e8 2c 3d ad 30 d3 3d 25 1c 12 3d ca d9 71 bd
       0.04221435 0.103120185 0.035671372 -0.05904559
000040 a2 30 08 3e 67 0d a1 bd 45 ba ed bc d8 e5 30 3c
       0.13299802 -0.078638844 -0.029019484 0.0107969865
000050 e7 fe a9 bd 21 d1 82 3c 5c 02 ed 3d cd ab b2 bd
       -0.08300572 0.015968861 0.11572716 -0.08724175
000060 c3 be 06 3e 1a 6a db 3d 35 15 97 bd 58 d7 c7 3d
       0.13158707 0.10713597 -0.07377092 0.097578704
000070 77 1e 7b 3d c2 4c eb 3d 85 35 08 3e 45 6d 08 be
       0.06130835 0.1148925 0.13301666 -0.13322933
000080 9b 9d cd 3d bc 60 d0 bd 91 68 bd bd a9 f7 05 bc
       0.100398265 -0.101747006 -0.0924846 -0.008176723
000090 fd fe 16 bc 8d ee 72 3c 63 be d4 bd 34 89 02 3e
       -0.009216067 0.014827383 -0.10387876 0.12747651
0000a0 c6 77 df 3c 08 38 f4 3d 25 7b 04 3d b7 20 7a bd
       0.027278792 0.119247496 0.032344002 -0.061066356
0000b0 fc eb d2 3b 0b db 14 3e 46 fb c2 bc e9 5e aa ba
       0.006436823 0.14536683 -0.023801457 -0.0012998256
0000c0 9b 65 ef 3d 40 f9 81 3d c5 bb 8e bd 83 f5 2a bd
       0.116893016 0.06346369 -0.06969408 -0.041738044
0000d0 9b c5 2d 3e d7 12 69 bd 61 db 5d 3c 93 d3 44 3c
       0.16969912 -0.056902733 0.013541074 0.012013334
0000e0 0a 43 33 3d 83 c8 60 bd
       0.043765105 -0.054878723

layer4.apply_func.weight f4 [6, 58]
000000 46 d4 e3 bd 55 f8 b7 bd 34 0a d3 3d be 1b 93 bc
       -0.11124472 -0.089829125 0.103046805 -0.017957564
000010 b6 a5 c2 3d 31 3f 33 bd 10 f4 96 bd 27 57 9e 3c
       0.09504263 -0.043761436 -0.0737077 0.019328667
000020 ee 9e 09 be d9 7f c9 bd c2 9a e5 3d 19 4f 23 bc
       -0.13439533 -0.09838838 0.11211158 -0.009967589
000030 ec 07 da bd a6 d5 31 3d ac 18 0f bd 69 77 e8 3d
       -0.10646042 0.04341664 -0.03493564 0.11350901
000040 9b bd 4e bb 21 67 a9 bd 42 78 16 bd e3 a8 49 b8
       -0.003154612 -0.082716234 -0.03673578 -4.8079422e-05
000050 3c 7f ff 3d f3 6b 10 3d 56 c0 fa bd 51 25 e2 bd
       0.1247544 0.0352592 -0.122437164 -0.11042274
000060 80 1b 5e bd cb 89 14 3e 40 2a 7b bd 57 86 92 3d
       -0.054225445 0.14505689 -0.06131959 0.071545295
000070 07 05 22 bd 4a 84 79 bc 2e a4 c9 bd 87 e1 30 bd
       -0.039555576 -0.015229294 -0.09845768 -0.04318383
000080 6b 59 ae 3d be 1a ab bd 94 fe df 3d 5c 97 c8 3d
       0.08513149 -0.0835471 0.10937229 0.097944945
000090 33 d0 93 bd 47 9e d2 bd 01 b6 48 3d de 72 c1 3c
       -0.07217445 -0.10284095 0.049001697 0.023614343
0000a0 94 0f 45 bc 77 9b e5 bd 58 c1 bc bd fd 75 c0 bd
       -0.01202764 -0.11211293 -0.09216565 -0.093975045
0000b0 53 86 82 bd 57 9a 94 bd 44 19 1f 3c df f5 a3 bd
       -0.063732766 -0.072560005 0.009710614 -0.080058806
0000c0 47 95 92 3d 0c ed fd 3d 7a 0d 45 3d da 73 4f bc
       0.07157379 0.12398729 0.048108555 -0.0126618985
0000d0 35 71 e6 bd 78 59 bd 3d 32 95 e8 3b 3f 99 c9 3d
       -0.11252061 0.092455804 0.0070978636 0.098436825
0000e0 90 8e 14 bd fb c1 c8 3c e0 da 1c bd 7b 51 1a bd
       -0.03626877 0.02450656 -0.038294673 -0.037675362
0000f0 09 81 ba 3d 2f 5c 65 bd d9 07 52 3d da da d1 bd
       0.09106643 -0.055996116 0.051277015 -0.10246821
000100 c9 f8 e9 bd a0 34 0f 3e d4 31 c9 bd 91 40 cc bd
       -0.11424405 0.13984919 -0.09823957 -0.099732526
000110 a4 93 e7 bd 64 50 12 bd 82 d3 01 be e0 99 61 bd
       -0.11307457 -0.035721198 -0.1267834 -0.055078387
000120 a9 fe 8f 3c ea c5 d7 bd 23 5f e0 3c 50 d3 bb 3d
       0.017577486 -0.10535796 0.027389115 0.09171164
000130 26 d8 19 bd 96 a9 98 3d 55 23 9b 3d a6 76 fa bd
       -0.03755965 0.07454221 0.075750984 -0.12229662
000140 88 e5 0d 3d 9f 59 ce 3d be 12 22 bd 73 7f c9 3d
       0.034642726 0.100756876 -0.039568655 0.09838762
000150 2a ac e4 bc f5 b9 ed bd c1 63 46 3e af f7 5b 3c
       -0.027914125 -0.11607734 0.1937399 0.013425752
000160 1e cc 04 be e2 68 65 3b 97 a6 d7 3c 07 d3 d0 bd
       -0.1296849 0.0035005142 0.026324553 -0.101965
000170 ca ce 08 bc cd b3 28 be 98 82 ac 3b 05 a9 9c bd
       -0.008350084 -0.16474839 0.0052645914 -0.076494254
000180 52 aa 91 3d 6f 49 08 3e 74 dc e0 bd 8c b9 11 3d
       0.07112564 0.13309263 -0.10979548 0.035577342
000190 51 58 a3 bd 34 24 d0 3d b0 27 b2 bd a7 d6 e9 bd
       -0.079758294 0.10163155 -0.08698976 -0.11417895
0001a0 f2 70 e2 3d 9a db 8a 3d 97 fd 0a 3d e2 fe 2b bd
       0.11056699 0.06780167 0.03393325 -0.041991122
0001b0 bb 6a cf bd 79 89 21 bc ae 89 ed 3c 25 8e e5 bc
       -0.10127779 -0.009859436 0.028996315 -0.028021881
0001c0 30 1b 0e bd 5c d9 62 3c 7a 63 00 3d 21 9a ef bd
       -0.034693897 0.013845768 0.03134487 -0.1169932
0001d0 6f 1f 87 3d fc 14 96 3d 38 ef 23 bd 74 ad c4 bd
       0.06597792 0.07328221 -0.04002306 -0.09603396
0001e0 ec 1b ff 3d 5c 25 fd bd 69 3e f5 bc 80 b2 86 3b
       0.124564976 -0.12360641 -0.029936986 0.0041106343
0001f0 3e 4c ad bd cd c2 8d bd 0b 4a e3 3d ca 5c ad 3c
       -0.08461808 -0.06921921 0.11098107 0.02116241
000200 5b 42 63 3c 64 e8 97 3d 97 d1 c3 3c 30 ef 36 bc
       0.013870801 0.07417372 0.023903651 -0.011165425
000210 46 2b 11 3e b7 98 be 3b 05 60 5b 3d b3 a6 b5 3d
       0.14176664 0.005816545 0.05355837 0.08869686
000220 de b1 5d bd 8a 8b dc bd c8 4b b0 bd 34 af 42 3d
       -0.054124705 -0.107688025 -0.08608204 0.047530368
000230 ea 37 f2 3c 82 c2 80 be 6d 4d ab 3d 45 c3 e0 3b
       0.029567678 -0.25148398 0.08364377 0.0068592154
000240 fe a7 df bc e6 97 f3 bd 63 44 9f 3d 03 de 3d 3c
       -0.027301785 -0.11894207 0.077767156 0.011588576
000250 87 de 0e be 72 0a 01 be 50 0e 0e bd 6c 07 01 bd
       -0.13952075 -0.12601641 -0.03468162 -0.03150122
000260 18 44 a9 3d a0 d0 08 bd a7 6e 41 bd d5 15 1e 3e
       0.08264941 -0.033402085 -0.047224667 0.15438016
000270 16 8a ed 3c 24 77 df 3b 6e 11 ed 3d ea 41 3e bd
       0.028996509 0.0068196226 0.1157559 -0.04644958
000280 ef 13 57 3c e9 a9 e7 3d 5b c2 48 3b a2 e1 c1 3d
       0.013127311 0.11311705 0.0030633423 0.09466864
000290 49 e4 87 3d 4a dd 63 3d 28 a6 bb 3a ab 98 ae 3d
       0.06635339 0.05563096 0.0014316486 0.08525213
0002a0 d4 94 83 3d 91 36 5f bd 52 95 b5 3d 5b a1 de bd
       0.06424871 -0.054495398 0.08866371 -0.1087062
0002b0 72 3d d3 bd 6e 62 74 3c 85 31 08 be 37 0e ac 3d
       -0.10314454 0.014916046 -0.1330014 0.08401149
0002c0 c6 f4 bc 3d ab a7 62 bd ae 79 00 3e 39 38 3c 3d
       0.09226374 -0.055335682 0.12546417 0.045952056
0002d0 d2 fa b1 3d d6 e3 91 3d 5f 04 7a 3d 1d 3e cb 3d
       0.08690418 0.071235344 0.061039325 0.099239565
0002e0 95 b5 16 3e 5f f7 31 3d 7a 92 12 be 92 d7 29 3d
       0.14717706 0.043448802 -0.14313689 0.04146535
0002f0 9c 1c 2a 3e b2 13 70 bd d7 cf eb 3c c5 82 58 3d
       0.16612476 -0.058612533 0.02878563 0.052859087
000300 25 78 a1 bd 2c c8 05 3c 5b be 61 3c 5d 7e b7 3d
       -0.07884244 0.0081654005 0.013778294 0.08959649
000310 68 fa 31 be 11 82 fb bd 97 ce bc bd 23 86 fb 3d
       -0.17380679 -0.122806676 -0.092190914 0.12281444
000320 dc c3 d2 3d a1 90 0a be 4a c3 8d bc de ff d0 bc
       0.102912635 -0.13531734 -0.017305035 -0.025512632
000330 79 ce 05 3e 81 8a 60 bd 92 c9 06 be 67 31 80 3d
       0.13067044 -0.054819588 -0.1316283 0.06259423
000340 b3 e0 a0 3d ae 4b ac bd 83 55 64 bc 4c 0c 7f 3c
       0.07855358 -0.08412872 -0.013936403 0.015566897
000350 4d 07 9f bd 4c f5 08 be 65 53 82 3c 9f e2 a5 bd
       -0.077650644 -0.13374823 0.015908906 -0.08099865
000360 48 47 ef 3d f3 1a 78 bc da 9f bd 3d bd f8 4d 3e
       0.11683518 -0.015143144 0.09259005 0.20114417
000370 0c 38 a3 3d b1 f4 c2 bd 01 ef 1b be a8 eb 71 bd
       0.079696745 -0.095193274 -0.15227892 -0.05906263
000380 79 67 e3 bd f2 78 72 bd 5b 0b 11 be 97 e0 c3 bd
       -0.1110372 -0.059197374 -0.14164488 -0.095643215
000390 6e 0c 4c 3c a3 53 a2 bb 79 6e 09 3c e9 d3 a9 3d
       0.012454135 -0.004953818 0.008388155 0.08292372
0003a0 59 ec 40 bd 2e aa fa bd 19 73 17 be fc a1 d9 bd
       -0.0471004 -0.122394904 -0.1479 -0.10626599
0003b0 f0 d3 69 bd ad 02 b4 3d 28 dd 36 bd a4 5c 2e be
       -0.057086885 0.08789573 -0.044644505 -0.17027527
0003c0 c5 06 84 bd 03 35 01 3d 9c 8d 2d 3d 37 8c a8 3d
       -0.06446604 0.031544697 0.042371377 0.08229869
0003d0 3f e3 cb 3d 98 83 51 3d d4 56 84 3a d7 b8 64 3d
       0.09955453 0.05115089 0.0010096678 0.05584034
0003e0 a6 d5 f5 bd 98 e7 fe bd 44 89 da 3d 58 a3 8b 3d
       -0.12003641 -0.12446517 0.106707126 0.06818265
0003f0 11 49 72 bd 8a 49 0d 3d 3d d6 d7 3c c0 b0 88 bd
       -0.059151713 0.03449396 0.026347274 -0.066743374

layer4.apply_func.bias f4 [6]
000000 08 8d 1c be e2 ae 84 3d 1a 8e 56 3d 84 65 6c 3d
       -0.15288174 0.06478669 0.052381612 0.057714
000010 83 32 aa 3d 17 c7 2d 3c
       0.083104156 0.010606549
