social_computing/deep_graph_library/best_model_random.pth (torch, 891841 bytes, 8 tensors)

layer1.apply_func.weight f4 [58, 3703]
0	0xc046be11	-3.1053507
1	0xc04a3bea	-3.1599069
2	0xc0574aed	-3.363948
3	0xc04da04f	-3.2129095
4	0xc04e7beb	-3.2263134
5	0xc04a944b	-3.165301
6	0xc052853e	-3.2893825
7	0xc043d58d	-3.059909
8	0xc0509914	-3.2593431
9	0xc04cf31e	-3.2023387
10	0xc0496416	-3.1467338
11	0xc04e6a7c	-3.2252493
12	0xc049ce55	-3.1532185
13	0xc046f5ef	-3.1087606
14	0xc04e8bea	-3.2272897
15	0xc046f41a	-3.1086488
16	0xc04fc53c	-3.2464132
17	0xc049d614	-3.1536913
18	0xc04a9cf3	-3.1658294
19	0xc044056d	-3.0628312
20	0xc058553c	-3.3802023
21	0xc0472083	-3.1113594
22	0xc04fe3a0	-3.2482681
23	0xc0488ff2	-3.1337857
24	0xc04597af	-3.087383
25	0xc04731be	-3.112411
26	0xc04e2798	-3.2211666
27	0xc04a28ab	-3.1587322
28	0xc04fe380	-3.2482605
29	0xc043bebe	-3.058517
30	0xc04c7473	-3.1946075
31	0xc041fcda	-3.0310578
32	0xc045d78f	-3.0912817
33	0xc04d7764	-3.210412
34	0xc05078d7	-3.2573755
35	0xc0416499	-3.021765
36	0xc04a4098	-3.1601925
37	0xc049a2fe	-3.1505733
38	0xc05049c4	-3.2545023
39	0xc046f49a	-3.1086793
40	0xc0449402	-3.0715337
41	0xc0526e77	-3.2879922
42	0xc04e43aa	-3.22288
43	0xc054457b	-3.3167408
44	0xc04fa899	-3.2446654
45	0xc04e8828	-3.2270603
46	0xc044b052	-3.0732617
47	0xc04bb8f3	-3.1831634
48	0xc03e4c66	-2.973413
49	0xc05b2d02	-3.424622
50	0xc0450092	-3.0781598
51	0xc053c218	-3.3087215
52	0xc04aaade	-3.166679
53	0xc043dc7a	-3.0603318
54	0xc053255c	-3.2991552
55	0xc042f9e9	-3.0465033
56	0xc0492438	-3.1428356
57	0xc04ea361	-3.2287219
58	0xc0428b15	-3.039739
59	0xc0519061	-3.2744372
60	0xc03fa3a7	-2.9943635
61	0xc04cb2d2	-3.1984143
62	0xc0414d65	-3.0203488
63	0xc056ed6e	-3.3582416
64	0xc0490bcc	-3.141345
65	0xc0455da8	-3.0838413
66	0xc0504644	-3.2542887
67	0xc046a127	-3.103586
68	0xc0471b38	-3.1110363
69	0xc0468041	-3.101578
70	0xc054230f	-3.3146398
71	0xc04d8dee	-3.2117877
72	0xc0546525	-3.3186734
73	0xc048b080	-3.1357727
74	0xc04a4f07	-3.1610734
75	0xc04e4f42	-3.2235875
76	0xc04f4c71	-3.2390406
77	0xc04eeba7	-3.233133
78	0xc04b351b	-3.1751163
79	0xc04afa85	-3.1715405
80	0xc0536024	-3.302743
81	0xc04860bf	-3.130905
82	0xc04b9759	-3.1811125
83	0xc046a8e0	-3.1040573
84	0xc05289bb	-3.2896564
85	0xc046f07a	-3.1084275
86	0xc047ee3d	-3.123916
87	0xc055c9ea	-3.3404489
88	0xc04be30c	-3.1857328
89	0xc050b93e	-3.2613063
90	0xc04f7558	-3.241537
91	0xc04bb852	-3.183125
92	0xc04ef434	-3.233655
93	0xc04a6f8d	-3.1630585
94	0xc054dd3f	-3.3260038
95	0xc03df4bb	-2.9680622
96	0xc04e3138	-3.221754
97	0xc040e367	-3.0138795
98	0xc04f35b8	-3.2376537
99	0xc050d9e3	-3.2632987
100	0xc045a03e	-3.0879054
101	0xc05b3aa7	-3.4254549
102	0xc0514841	-3.270035
103	0xc053401a	-3.3007874
104	0xc04eaf71	-3.229458
105	0xc04e3277	-3.2218301
106	0xc0538437	-3.3049448
107	0xc04e1641	-3.2201083
108	0xc05563e7	-3.3342226
109	0xc0534d53	-3.3015945
110	0xc0590ac1	-3.3912814
111	0xc050a4e4	-3.2600641
112	0xc047cff1	-3.1220667
113	0xc047ce3b	-3.1219623
114	0xc0475765	-3.1147091
115	0xc03eab64	-2.9792109
116	0xc041a770	-3.0258446
117	0xc0503cab	-3.2537029
118	0xc04e94aa	-3.2278237
119	0xc051cf82	-3.2782903
120	0xc04b3108	-3.1748676
121	0xc04c0d23	-3.1883018
122	0xc04ead70	-3.2293358
123	0xc056fdd6	-3.359243
124	0xc0479083	-3.1181953
125	0xc045953d	-3.0872338
126	0xc04a35f8	-3.159544
127	0xc057e5b6	-3.3733954
128	0xc04ac4d1	-3.1682627
129	0xc04d7cdc	-3.2107458
130	0xc04a56e8	-3.1615543
131	0xc04cf7e2	-3.2026296
132	0xc04ecc29	-3.231211
133	0xc044401c	-3.066413
134	0xc050c551	-3.2620432
135	0xc0563068	-3.3467045
136	0xc04f9f34	-3.244092
137	0xc03fb3ed	-2.9953568
138	0xc047f687	-3.1244218
139	0xc04ff403	-3.2492683
140	0xc04c242f	-3.1897085
141	0xc04d486a	-3.2075448
142	0xc0489f41	-3.13472
143	0xc04488e6	-3.0708556
144	0xc0468f62	-3.1025014
145	0xc047001b	-3.1093814
146	0xc04e4991	-3.2232401
147	0xc042995c	-3.0406103
148	0xc03b14c3	-2.9231422
149	0xc04e46e0	-3.2230759
150	0xc04f6672	-3.2406278
151	0xc040743d	-3.0070946
152	0xc04a7450	-3.1633492
153	0xc04a2146	-3.1582808
154	0xc04a2410	-3.158451
155	0xc04a7a2e	-3.1637073
156	0xc0588a33	-3.383435
157	0xc0577b72	-3.3669095
158	0xc051c648	-3.2777271
159	0xc04f857c	-3.2425222
160	0xc0500a2b	-3.2506206
161	0xc04e74e0	-3.2258835
162	0xc049395d	-3.1441262
163	0xc0405e3e	-3.005752
164	0xc049964f	-3.149799
165	0xc050f914	-3.2652025
166	0xc0432765	-3.0492795
167	0xc0482607	-3.127321
168	0xc049bc73	-3.152127
169	0xc04ed451	-3.2317088
170	0xc0487901	-3.1323855
171	0xc0513b4f	-3.269245
172	0xc0502d7a	-3.2527757
173	0xc046d099	-3.1064818
174	0xc043ae60	-3.057518
175	0xc054f8b2	-3.3276792
176	0xc044b0a0	-3.0732803
177	0xc04b0509	-3.1721823
178	0xc053ad8b	-3.3074672
179	0xc04efdd4	-3.2342424
180	0xc0518517	-3.2737482
181	0xc0412627	-3.0179536
182	0xc04828e7	-3.1274965
183	0xc04c37d2	-3.190907
184	0xc04c2bf5	-3.190183
185	0xc0486668	-3.1312504
186	0xc04a1bc7	-3.1579454
187	0xc0582317	-3.3771417
188	0xc04bcced	-3.1843827
189	0xc049fcef	-3.1560628
190	0xc04caa8d	-3.1979096
191	0xc04a04e5	-3.1565487
192	0xc04e2fd5	-3.2216694
193	0xc03f2391	-2.9865458
194	0xc0507457	-3.2571008
195	0xc050a425	-3.2600186
196	0xc04ac5de	-3.1683269
197	0xc052d609	-3.2943137
198	0xc053ca5c	-3.309226
199	0xc0463862	-3.0971913
200	0xc05385e0	-3.305046
201	0xc04b7101	-3.1787722
202	0xc04c0c76	-3.1882606
203	0xc051b6d0	-3.276783
204	0xc0418280	-3.02359
205	0xc0510829	-3.266123
206	0xc04cc9eb	-3.199824
207	0xc04508e8	-3.0786686
208	0xc04b3c5d	-3.1755593
209	0xc048430c	-3.1290922
210	0xc046aac3	-3.1041725
211	0xc046009d	-3.0937874
212	0xc03f595a	-2.9898286
213	0xc04a36c1	-3.159592
214	0xc04f1965	-3.235925
215	0xc0527718	-3.288519
216	0xc04130ea	-3.0186105
217	0xc0476e28	-3.1160984
218	0xc05331b0	-3.2999077
219	0xc0520d7d	-3.2820733
220	0xc04e5259	-3.223776
221	0xc04ca4cc	-3.1975584
222	0xc0511872	-3.267117
223	0xc04e9c26	-3.2282805
224	0xc04b295c	-3.1743994
225	0xc044e3cd	-3.0764039
226	0xc0501db0	-3.251812
227	0xc05335f8	-3.300169
228	0xc04b7a84	-3.1793528
229	0xc0524270	-3.285305
230	0xc046e151	-3.1075022
231	0xc04ffbf2	-3.2497525
232	0xc04b98b9	-3.1811965
233	0xc03e58a2	-2.9741597
234	0xc042b182	-3.0420842
235	0xc04f0cf9	-3.2351668
236	0xc0449642	-3.071671
237	0xc04f8283	-3.2423408
238	0xc0497f56	-3.148397
239	0xc0584cd3	-3.379689
240	0xc05954fb	-3.3958118
241	0xc0491de6	-3.1424499
242	0xc04ba2a5	-3.181802
243	0xc05ee12e	-3.4824939
244	0xc040a064	-3.0097895
245	0xc052d4f7	-3.2942483
246	0xc04e2026	-3.2207122
247	0xc04ae99f	-3.170509
248	0xc04f6876	-3.2407508
249	0xc05e1948	-3.470293
250	0xc044d9ae	-3.075786
251	0xc03e611f	-2.9746778
252	0xc04e4d43	-3.2234657
253	0xc057169e	-3.3607554
254	0xc04d77ad	-3.2104294
255	0xc04fb023	-3.2451255

layer1.apply_func.bias f4 [58]
0	0xbf055480	-0.5208206
1	0xc2d3ee32	-105.965225
2	0xbe8efb4d	-0.27926102
3	0x3b0dc8e3	0.002163463
4	0x3b8e7603	0.004347564
5	0xbc00c840	-0.007860243
6	0xc29bdae9	-77.92756
7	0xbdb88427	-0.09009581
8	0xbc1f6696	-0.009729048
9	0xb98937b0	-0.00026172167
10	0xbc2eedf5	-0.010676851
11	0xc2639a69	-56.90079
12	0xbe1a8322	-0.15089086
13	0xbea3ae60	-0.31968975
14	0xcf1b5c97	-2.6065364e+09
15	0xbeed1597	-0.46305534
16	0xc0daa927	-6.8331485
17	0xbaa8cf67	-0.0012879194
18	0xbe0156a5	-0.12630709
19	0xbe1d5d56	-0.15367636
20	0xc0384486	-2.8791823
21	0xbe62d760	-0.22152472
22	0xbe15c275	-0.1462496
23	0xbf0009b7	-0.50014824
24	0xbdcd88fa	-0.10035892
25	0xbe5e5ac2	-0.21714309
26	0xbd487134	-0.048936084
27	0x3da86b30	0.082235694
28	0xbc29945e	-0.010350315
29	0xc2cc5356	-102.162766
30	0xc32f3363	-175.20073
31	0xbc570cd6	-0.013125619
32	0xc1336b18	-11.213646
33	0xc183087f	-16.379148
34	0xc18fe5d9	-17.98723
35	0xc202978f	-32.648006
36	0xbc48daac	-0.012259167
37	0xcd4a1ee6	-2.1193891e+08
38	0x3bf21070	0.0073872134
39	0xc2816755	-64.70182
40	0x3c59d0c7	0.013294405
41	0xbdf849ec	-0.121234745
42	0xbe370b84	-0.17875487
43	0xbe00e9ec	-0.12589234
44	0xca6964f6	-3.8239335e+06
45	0xc18cf343	-17.61878
46	0xbed944b3	-0.42435226
47	0x3adc04db	0.0016786115
48	0x3c623518	0.013806604
49	0xbc60d40c	-0.013722431
50	0xc2dcc6c2	-110.3882
51	0xc924ec6e	-675526.9
52	0xbdb0c1ad	-0.08630691
53	0xc0adbed8	-5.4295464
54	0xc1fdfa42	-31.747196
55	0xba0f4a46	-0.00054660847
56	0xc0e3f134	-7.1231937
57	0xbc51e01b	-0.012809779

layer2.apply_func.weight f4 [58, 58]
0	0x3dc8a765	0.09797553
1	0x45b85ea8	5899.832
2	0x3df1c083	0.11804297
3	0xbbf96b29	-0.0076116514
4	0xbd964cd2	-0.07338871
5	0x3de30428	0.11084777
6	0x43f40e6b	488.11264
7	0x3d86afb4	0.065764815
8	0xbd7343f0	-0.059390962
9	0xbdd0c6bc	-0.101941556
10	0x3dfa7e8e	0.1223117
11	0x448e33be	1137.617
12	0xbdbc4d94	-0.09194484
13	0xbcc6522b	-0.024209103
14	0xbf5b4429	-0.8565088
15	0x3dd12a30	0.10213125
16	0x43b47750	360.93213
17	0xbc6afea3	-0.014342937
18	0xbdf18843	-0.11793568
19	0xbdf3d1f5	-0.119052805
20	0x41668048	14.406319
21	0x3dc3289a	0.095292285
22	0x3dfd48f5	0.12367431
23	0xbda360e0	-0.07977462
24	0x3db88420	0.09009576
25	0xbdfa92e1	-0.12235046
26	0xbdf3833b	-0.118902646
27	0xbd70ac8f	-0.058758315
28	0xbc235d9b	-0.009971048
29	0x45b94227	5928.269
30	0x448dbdee	1133.9353
31	0xbd83966d	-0.06425176
32	0x3f8f5e76	1.1200702
33	0x44c1a9d9	1549.3077
34	0x42e66c6c	115.21176
35	0x452a3cc7	2723.7986
36	0x3c99e67f	0.018786667
37	0xcfcbc6e6	-6.8376197e+09
38	0x3dd3eb4f	0.10347616
39	0x44a8f055	1351.5104
40	0xbd98910d	-0.07449541
41	0x3dac8f41	0.08425761
42	0xbd293e2d	-0.04131906
43	0xbc8b7057	-0.017021341
44	0xcfb008ad	-5.906717e+09
45	0x43d6ede6	429.85858
46	0x3d82231d	0.063543536
47	0xbc3e6221	-0.011620075
48	0x3de66e3d	0.11251495
49	0xbdd8cfa6	-0.10586481
50	0x44fe191a	2032.7844
51	0xca92a305	-4.8049945e+06
52	0xbdf75d12	-0.12078299
53	0x41a914c0	21.135132
54	0x4114801b	9.281276
55	0x3d023814	0.03179176
56	0x44d46d16	1699.4089
57	0x3d48dac8	0.04903677
58	0xbde647c3	-0.11244156
59	0xbd7a981f	-0.06118023
60	0x3d82d81e	0.06388877
61	0x3d8e5499	0.069497295
62	0x3c3293a6	0.01089946
63	0x3d8adff2	0.067809954
64	0xbdeecaa5	-0.11659745
65	0x3d528f49	0.05140618
66	0xbc57fc09	-0.013182648
67	0x3dcc8953	0.0998713
68	0x3d2e8af9	0.042613003
69	0xbd8daeb5	-0.06918088
70	0xbd8f8543	-0.070078395
71	0xbd8713bb	-0.0659556
72	0xbd08c290	-0.033388674
73	0xbdeac428	-0.11463195
74	0x3ddfcc02	0.10927583
75	0x3c9350da	0.017982889
76	0xbdb25838	-0.08708233
77	0x3d46cf2d	0.048537422
78	0xbc9dac5b	-0.019247225
79	0x3de19a13	0.110157155
80	0x3d884888	0.06654459
81	0x3df690f5	0.12039367
82	0x3cd08918	0.025455996
83	0x3d756e47	0.05991962
84	0xbe00633c	-0.12537855
85	0x3d68b4f9	0.056813214
86	0xbdc58c9c	-0.0964596
87	0xbd885be8	-0.06658155
88	0xbd7072de	-0.058703296
89	0x3ce11e87	0.027480377
90	0x3a4af896	0.00077427307
91	0x3d6e4836	0.058174334
92	0x3c29d099	0.010364675
93	0xbc57d7ab	-0.013173978
94	0xbdb53b44	-0.08849195
95	0x4d234531	1.712013e+08
96	0xbd651951	-0.055932347
97	0xbd61703a	-0.05503867
98	0x3ccce104	0.02500964
99	0xbdf41957	-0.11918896
100	0x3dcdcf92	0.100493565
101	0x3ce15eed	0.027511084
102	0x4d0d0abd	1.478932e+08
103	0x3d4fb9db	0.050714355
104	0xbd2f3ef7	-0.042784657
105	0xbc9720b0	-0.018448204
106	0x3df6ed38	0.12056965
107	0xbe03bc27	-0.12864743
108	0xbbcd679c	-0.0062684547
109	0x47eafa00	120308.0
110	0xbdfa017e	-0.12207316
111	0x3dee7ad5	0.11644522
112	0xbde10837	-0.10987895
113	0xbdd08c06	-0.10182957
114	0xbdef8897	-0.11695974
115	0xbdc74598	-0.09730071
116	0xbda6b193	-0.08139338
117	0xbd6e35db	-0.05815683
118	0x3da740fd	0.081666924
119	0xbdbedceb	-0.093194805
120	0x3c2b15f7	0.010442249
121	0x3be934e3	0.0071169003
122	0xbc8a3f1c	-0.016875796
123	0x3d726308	0.059176475
124	0x3cb0d087	0.021583809
125	0x3d5219dc	0.051294193
126	0x3e0372dc	0.12836784
127	0xbd914eb1	-0.07095087
128	0x3d831052	0.06399597
129	0xbd81a2b9	-0.06329865
130	0x3cebd1f5	0.028786639
131	0xbdc81c50	-0.09771025
132	0x3ccb190b	0.024792215
133	0xbca24541	-0.019808413
134	0xbdecd081	-0.115632065
135	0x3d582a56	0.05277475
136	0x3dd4b4ac	0.10386023
137	0xbdd0562c	-0.10172686
138	0x3d7eb59c	0.062184915
139	0x3c8e269d	0.017352397
140	0x3d607fe4	0.054809466
141	0x3ddd182a	0.107956246
142	0xbce50cfc	-0.027960293
143	0x3bbf4608	0.005837206
144	0x3e006c81	0.12541391
145	0xbe1aedaf	-0.15129732
146	0xbdb291ab	-0.0871919
147	0xbcfa26ac	-0.030536018
148	0x3d36a627	0.04459205
149	0x3ddfa07c	0.10919282
150	0xbe01ad1d	-0.12663694
151	0xbde070b2	-0.10958995
152	0x3d10efe7	0.03538504
153	0x4e0b7f7a	5.850968e+08
154	0x3d8c0932	0.06837691
155	0xbc5bb08f	-0.013408794
156	0x3c424234	0.011856604
157	0xbd33eba6	-0.043925904
158	0xbe073748	-0.13204682
159	0xbdd2b7f9	-0.10288996
160	0x4df1031c	5.054391e+08
161	0xbe06eacf	-0.1317551
162	0x3d533a48	0.051569253
163	0x3cd57dd8	0.026060984
164	0x3e0010ff	0.12506483
165	0xbde7de06	-0.113216445
166	0xbe14715b	-0.14496367
167	0x48c8c3a6	411165.2
168	0xbd5268ea	-0.051369585
169	0x3be8c55c	0.007103605
170	0x3dfc1391	0.123084195
171	0x3d70890b	0.058724444
172	0x3db33d41	0.08751918
173	0x3d368c19	0.0445672
174	0xbe066f89	-0.13128485
175	0xc86186fa	-230939.9
176	0xbde06e5e	-0.10958551
177	0x3c498ea7	0.012302077
178	0xbdf78e2e	-0.120876655
179	0x3db0deb1	0.08636225
180	0xc6954440	-19106.125
181	0xbe3addd9	-0.1824869
182	0x3dbda0fe	0.092592224
183	0x3d172efc	0.036910042
184	0xbd4efe83	-0.05053569
185	0xc72df155	-44529.332
186	0x3c3d5e72	0.011558162
187	0xba02bd78	-0.00049873395
188	0x51e5e9a0	1.2343339e+11
189	0xbe61188f	-0.21982025
190	0xc65cd237	-14132.554
191	0xbcbbee41	-0.022940757
192	0xbdb65405	-0.08902744
193	0xbd7f650a	-0.062352218
194	0xc40c2254	-560.5364
195	0xbdf07b0b	-0.117422186
196	0xbe36ca45	-0.17850597
197	0xbef65c86	-0.48117465
198	0xbe58d758	-0.21175897
199	0xbe03156c	-0.1280114
200	0x3e03b987	0.12863742
201	0xbeb0cbd8	-0.3453052
202	0x3d6ead9e	0.058271043
203	0xc8629b96	-232046.34
204	0xc72d6109	-44385.035
205	0x3d67d847	0.056602743
206	0xc2289634	-42.146683
207	0xc76ce45d	-60644.363
208	0xc58cd499	-4506.5747
209	0xc7d03f73	-106622.9
210	0x3c27d725	0.010244166
211	0xc49f44ee	-1274.154
212	0x3db49bc8	0.088187754
213	0xc74ea5a4	-52901.64
214	0xbe1affa7	-0.15136586
215	0xbe0a9093	-0.13531713
216	0x3d1faac7	0.038981225
217	0x3d76807e	0.060181133
218	0xc1f6670c	-30.800316
219	0xc6837a8c	-16829.273
220	0xbe549217	-0.20758854
221	0xbd8cb67c	-0.06870744
222	0x3d0e4f0f	0.034743365
223	0xbe39dde1	-0.18151046
224	0xc79b67cf	-79567.62
225	0xbe0daa86	-0.13834581
226	0xbe98b364	-0.29824364
227	0xc44f8790	-830.11816
228	0xc3b3faed	-359.96036
229	0xbce4e968	-0.027943328
230	0xc781e9a8	-66515.31
231	0xbcc41617	-0.023936315
232	0x3ff8bdcd	1.9432923
233	0xc88476f8	-271287.75
234	0x3f354f96	0.70824564
235	0x3d991a76	0.0747575
236	0xbdbba555	-0.09162394
237	0x3dea0e7a	0.114285424
238	0xc6af560b	-22443.021
239	0x4009a331	2.1505854
240	0x3d908002	0.070556656
241	0xbd58094e	-0.05274325
242	0x3dd795ad	0.10526595
243	0xc74c5477	-52308.465
244	0xbc52c3be	-0.012864051
245	0x3ee3d268	0.44496465
246	0xbdf8a66a	-0.12141116
247	0x3fe13778	1.7595053
248	0xc681b33e	-16601.621
249	0x3cc2125a	0.023690391
250	0x3fb3bd3d	1.4042126
251	0x3e9d22da	0.30690652
252	0xc42498be	-658.3866
253	0x3e82868b	0.25493273
254	0x3f1e6991	0.6187983
255	0x408471b8	4.1388817

layer2.apply_func.bias f4 [58]
0	0xc5e287e2	-7248.9854
1	0xc33b47c1	-187.28029
2	0xd701dba5	-1.4278037e+14
3	0xc8110cd2	-148531.28
4	0xc0dca112	-6.894662
5	0xcab7734b	-6.0113015e+06
6	0xc041c2c9	-3.0275137
7	0xc356cfbb	-214.81145
8	0xd00870ed	-9.156408e+09
9	0xc9b38c7d	-1.4708636e+06
10	0xbd046d44	-0.032330766
11	0xcab791f1	-6.0152245e+06
12	0xbd052e83	-0.03251506
13	0xc94fb521	-850770.06
14	0xc7a0d94e	-82354.61
15	0xc421f1aa	-647.776
16	0xc9632e37	-930531.44
17	0xbd194550	-0.037419617
18	0xc47b1ed0	-1004.48145
19	0xcadf6649	-7.3203565e+06
20	0xc2b5b7de	-90.859116
21	0xc6c70d11	-25478.533
22	0xc89a7399	-316316.78
23	0xca9d10d1	-5.1467285e+06
24	0xc79afb2e	-79350.36
25	0xc2197c29	-38.37125
26	0xc99adaf8	-1.268575e+06
27	0xc38858fe	-272.69525
28	0xc97dfbc9	-1.04031656e+06
29	0xc68f3c1b	-18334.053
30	0xce54115c	-8.8947686e+08
31	0xc09c656a	-4.8873796
32	0xc0f9eea4	-7.810381
33	0xbe252d4d	-0.16130562
34	0xc0fdc678	-7.930477
35	0xc90edfec	-585214.75
36	0xbf684842	-0.90735257
37	0xc92b5c63	-701894.2
38	0xc8b160ef	-363271.47
39	0xc0db80c0	-6.8594666
40	0xbde22596	-0.11042325
41	0xcd2b7879	-1.7979995e+08
42	0xc66dddd4	-15223.457
43	0xc90f7729	-587634.56
44	0xbde3744c	-0.11106166
45	0xc98233fa	-1.0666232e+06
46	0xc986e12a	-1.1049332e+06
47	0xc0962dc8	-4.6930885
48	0xbc798e5d	-0.015231696
49	0xbd78f577	-0.06078097
50	0xc998d5dd	-1.2520276e+06
51	0xc9155c28	-611778.5
52	0xccac967b	-9.048572e+07
53	0xc7c5fd0c	-101370.09
54	0xbcc9f1aa	-0.024651367
55	0xbff4b946	-1.9119041
56	0xbd6bb23d	-0.05754303
57	0xc887e5c1	-278318.03

layer3.apply_func.weight f4 [58, 58]
0	0xbd5e03b4	-0.05420275
1	0xbd4b3ae4	-0.04961671
2	0xbd55822c	-0.052126095
3	0xbfb9598e	-1.4480455
4	0xbfc4c03f	-1.5371169
5	0xc0080902	-2.1255498
6	0xbf2988af	-0.6622419
7	0x3dcadd99	0.09905548
8	0x3da8206b	0.08209308
9	0x3dc3ea47	0.09566169
10	0x3da8149a	0.082070544
11	0xc006206d	-2.095729
12	0xbca95cba	-0.020674098
13	0xbd33b6da	-0.043875553
14	0x3dfef91d	0.12449858
15	0xbe7a68ff	-0.24454115
16	0xbe79e0fa	-0.24402228
17	0xbfd1a3ca	-1.637811
18	0x3ddb329d	0.10703013
19	0xc02293da	-2.5402741
20	0xbccdfcf6	-0.025145035
21	0xbfc93405	-1.5719
22	0xc02e88c9	-2.7270987
23	0xbfe6cb24	-1.8030744
24	0xbc8440af	-0.016144125
25	0xbf76de40	-0.96432877
26	0xbd9419b7	-0.07231467
27	0xc011c733	-2.2777832
28	0xbfc032d9	-1.5015517
29	0xbcb269d3	-0.021778977
30	0xcc5e5df0	-5.829216e+07
31	0xbf91db65	-1.1395079
32	0xbfe4ace6	-1.7865264
33	0xbff202a3	-1.8907055
34	0xbff387fd	-1.9025875
35	0xbd8b6779	-0.06806845
36	0xbd6cdf0f	-0.057829913
37	0x3d5af105	0.05345251
38	0xc016fe98	-2.3592892
39	0xbfc97825	-1.573979
40	0xbdab8a06	-0.08375935
41	0x3b72186e	0.003694083
42	0xbcbbde06	-0.022933017
43	0x3dd216a0	0.102582216
44	0xbda7f28b	-0.08200558
45	0xbe4497fe	-0.19198605
46	0x3dafdc68	0.08586961
47	0xbf8facee	-1.1224649
48	0x3d9cffa3	0.07665946
49	0xbdee3fd2	-0.116332665
50	0x3de0a854	0.10969606
51	0xbff201d4	-1.8906808
52	0x3d9abb21	0.07555223
53	0xbd0b3b7f	-0.033992287
54	0x3d8d22e3	0.0689142
55	0xbeb93f76	-0.3618123
56	0x3dacdca6	0.08440523
57	0xbf0c47bb	-0.5479695
58	0xc2bf89aa	-95.768875
59	0xbdf45b39	-0.11931462
60	0xccef856e	-1.255781e+08
61	0xc5660021	-3680.008
62	0xc7a24b3d	-83094.48
63	0xd1f4f505	-1.31510346e+11
64	0xc7e7299a	-118355.2
65	0x3d22bae4	0.039729014
66	0xbdd885d9	-0.105724044
67	0xc6362c3d	-11659.06
68	0xbc6f297f	-0.014597296
69	0xcc333f3b	-4.6988524e+07
70	0xbd0b57b9	-0.034019206
71	0xc5aac67b	-5464.81
72	0x3d160aab	0.036631268
73	0x3ed9c5d0	0.4253373
74	0xccb0c427	-9.267641e+07
75	0x40971a8c	4.7219906
76	0x3c536c66	0.012904262
77	0xd0ba39b7	-2.4994757e+10
78	0x3e02a0a7	0.12756597
79	0xc7d15107	-107170.055
80	0x410c8081	8.781373
81	0xccaccfa9	-9.0602824e+07
82	0xc46d1610	-948.3447
83	0x405de104	3.4668589
84	0xc6747d83	-15647.378
85	0x40f12e77	7.536922
86	0xc6445e98	-12567.648
87	0xcd43a662	-2.0515382e+08
88	0xcc050e79	-3.4879972e+07
89	0xc518a3e9	-2442.2444
90	0xc7f25635	-124076.414
91	0x40c7e5f6	6.2468214
92	0xc6ba6ea6	-23863.324
93	0xc5e1a0a3	-7220.0796
94	0xc5391e2d	-2961.886
95	0x3d75c403	0.060001384
96	0x40f08f71	7.51751
97	0xc71113d8	-37139.844
98	0xbd2921ff	-0.041292187
99	0x3e2d855e	0.16945407
100	0xbda74cba	-0.08168931
101	0xc5e26b5f	-7245.4214
102	0x3dcc90f4	0.09988585
103	0xc64d679e	-13145.904
104	0xbd5ea511	-0.05435664
105	0xc83ec640	-195353.0
106	0xbdc11ef8	-0.09429735
107	0xbb881bcd	-0.0041537047
108	0x3d37209e	0.04470884
109	0x40c43f72	6.132745
110	0x3c3868d4	0.011255462
111	0xc49cf0f1	-1255.5294
112	0x3d23fba4	0.040034905
113	0xc6fca9e3	-32340.943
114	0xbdec8a82	-0.11549856
115	0xc6b0b4a0	-22618.312
116	0x3c40879f	0.011751085
117	0x3dfe2173	0.12408724
118	0x3c0fde59	0.008781039
119	0xc0829e60	-4.081833
120	0xc09616d7	-4.690288
121	0xc0d050e4	-6.5098743
122	0xbfd01ac7	-1.6258172
123	0xbdde07f8	-0.10841364
124	0x3db41808	0.08793646
125	0xbd4700ab	-0.04858462
126	0x3d3f5610	0.046712935
127	0xc0bde5e6	-5.934314
128	0xbdf82227	-0.12115889
129	0x3c5b3637	0.013379625
130	0xbdffce38	-0.12490505
131	0xbe516e63	-0.20452265
132	0xbf6fcb2f	-0.9366941
133	0xc08e0d53	-4.4391265
134	0xbdc8c73a	-0.098036245
135	0xc0ef188f	-7.471748
136	0xbd5d6777	-0.05405375
137	0xc09ddb5c	-4.9330273
138	0xc106178d	-8.38075
139	0xc0a68061	-5.2031713
140	0xbcdf08fa	-0.02722596
141	0xc057908f	-3.3681982
142	0xbcd8c467	-0.02646084
143	0xc0e00ab4	-7.0013065
144	0xc0938ff3	-4.611322
145	0x3d190a13	0.037363123
146	0xbd20514a	-0.039140023
147	0xc05b63be	-3.4279628
148	0xc0a490e3	-5.1426864
149	0xc0bc2e22	-5.8806314
150	0xc0b7a8c1	-5.73935
151	0x3cd53e15	0.02603058
152	0x3b36878d	0.002785179
153	0xbdcb03b7	-0.09912818
154	0xc0ddcd12	-6.931283
155	0xc09a4cde	-4.821883
156	0x3c6de4de	0.014519898
157	0x3d281333	0.041033935
158	0xbde2cc3f	-0.11074113
159	0x3d8083a2	0.06275107
160	0x3cae8004	0.021301277
161	0xbe7533b8	-0.2394551
162	0x3d97e5aa	0.07416852
163	0xc04f097c	-3.2349539
164	0x3ce30bf1	0.027715655
165	0xbd8d88ad	-0.069108345
166	0xbddc56be	-0.10758732
167	0xc0b999da	-5.8000307
168	0x3dcf55e4	0.10123804
169	0xbdf8b4a1	-0.12143827
170	0x3d9650fd	0.07339666
171	0xbf8d7f2b	-1.1054434
172	0xbd99f6b7	-0.0751776
173	0xc00b5df6	-2.17761
174	0xc22a0c5c	-42.51207
175	0x3dd80b84	0.105490714
176	0xcc06502d	-3.5209396e+07
177	0xc4cba16f	-1629.0448
178	0xc70f9329	-36755.16
179	0xd1095c89	-3.6872688e+10
180	0xc74c7e7e	-52350.492
181	0xbbfd260f	-0.007725484
182	0xbbff4979	-0.007790741
183	0xc5a125c3	-5156.72
184	0x3d0a8dce	0.03382664
185	0xcb490734	-1.317458e+07
186	0xbdebfda6	-0.11522989
187	0xc5170ebb	-2416.9207
188	0x3d9b3a77	0.07579511
189	0x3e1c7494	0.15278846
190	0xcbc63ef1	-2.5984482e+07
191	0x3f18d1e5	0.59695274
192	0xbd864b3c	-0.065573186
193	0xcfd0dabb	-7.0079913e+09
194	0xbdba837e	-0.091071114
195	0xc7392c36	-47404.21
196	0x3fa54b0a	1.2913525
197	0xcbc1cf6d	-2.5403098e+07
198	0xc3d1a4c0	-419.2871
199	0x3efbafde	0.49157614
200	0xc5d847df	-6920.984
201	0x3f897a4c	1.0740447
202	0xc5adc0cf	-5560.101
203	0xcc5b6c97	-5.7520732e+07
204	0xcb15398e	-9.779598e+06
205	0xc487314a	-1081.5403
206	0xc75661be	-54881.742
207	0x3f42bb87	0.76067394
208	0xc624f3a3	-10556.909
209	0xc547976e	-3193.4644
210	0xc4a3c77d	-1310.234
211	0xbd89324a	-0.06699045
212	0x3f9c1f28	1.2197008
213	0xc68059c4	-16428.883
214	0xbd031efb	-0.032011967
215	0x3e1d0942	0.15335563
216	0xbd318e9f	-0.043348905
217	0xc5484bee	-3204.7456
218	0xbd7e9ba2	-0.06216014
219	0xc5b5b566	-5814.675
220	0xbdfa053a	-0.12208028
221	0xc7a8c3d7	-86407.68
222	0xbd4dd602	-0.050252922
223	0x3d985a4e	0.07439099
224	0x3d4dc155	0.050233204
225	0x3f49892a	0.7872492
226	0xbd27ea03	-0.040994655
227	0xc40acdd1	-555.2159
228	0xbc253aff	-0.010084867
229	0xc65f83e7	-14304.976
230	0x3c44dbf5	0.0120153325
231	0xc61c5454	-10005.082
232	0xd012b728	-9.845907e+09
233	0xcd18b564	-1.6012653e+08
234	0xcda774a6	-3.5117997e+08
235	0x43a36d26	326.85272
236	0x45e659c9	7371.223
237	0x3d310177	0.043214288
238	0x46240b2e	10498.795
239	0xbd9f3b12	-0.07774939
240	0xce016a48	-5.428065e+08
241	0x448149fc	1034.312
242	0xbd8824f2	-0.06647672
243	0xbcc41301	-0.023934843
244	0xbb89c37d	-0.004204212
245	0x43f25e19	484.73514
246	0xbd91a2d5	-0.07111136
247	0xcd75cd2a	-2.5774147e+08
248	0xcd64e96c	-2.4003142e+08
249	0xbc1fd9f7	-0.009756557
250	0xcd1cfbff	-1.6461003e+08
251	0xbcb1c767	-0.021701528
252	0xcda271f6	-3.406722e+08
253	0x46148b24	9506.785
254	0xbd68e02b	-0.05685441
255	0xcbe9343a	-3.0566516e+07

layer3.apply_func.bias f4 [58]
0	0xc02d16a9	-2.704508
1	0xc7055199	-34129.598
2	0xc0cf045c	-6.469282
3	0xc61585e5	-9569.474
4	0xce182e26	-6.382903e+08
5	0xc3c079b2	-384.95074
6	0xbc33b385	-0.010968094
7	0xc415c209	-599.0318
8	0xc60285aa	-8353.416
9	0xc4f96efd	-1995.4684
10	0xc5c3c274	-6264.3066
11	0xc49d1123	-1256.5355
12	0xbe0632bf	-0.13105296
13	0xca46a3ca	-3.2545145e+06
14	0xc62da2cb	-11112.698
15	0xc6238c6d	-10467.106
16	0xbf955645	-1.1666952
17	0xc6b351bc	-22952.867
18	0xc2772547	-61.786404
19	0xc677e66f	-15865.608
20	0xc9dbe7b3	-1.8014624e+06
21	0xc02b03e5	-2.6721127
22	0xc2a71824	-83.54715
23	0xc3f9342a	-498.40753
24	0xc4c044bc	-1538.148
25	0xbe212d3f	-0.15739916
26	0xcbce8d3a	-2.707314e+07
27	0xc3f848f2	-496.5699
28	0xc9ff042b	-2.0890934e+06
29	0xc33fa024	-191.62555
30	0xc6f6eafa	-31605.488
31	0xbd5f5747	-0.054526594
32	0xbead36c5	-0.33830848
33	0xc623f610	-10493.516
34	0xc6561c7f	-13703.124
35	0xc3307a55	-176.47786
36	0xcbd408a9	-2.7791698e+07
37	0xc61433af	-9484.921
38	0xcc81b091	-6.799476e+07
39	0xc5175bbf	-2421.7341
40	0xcddcb2ad	-4.6283715e+08
41	0xbf70ecec	-0.94111514
42	0xc1822cf5	-16.271952
43	0xc6371e20	-11719.531
44	0xc6489354	-12836.832
45	0xc500baec	-2059.6826
46	0xc055fdd2	-3.343617
47	0xc22da1b6	-43.40792
48	0xc3370839	-183.03212
49	0xce31c588	-7.4562816e+08
50	0xc341cb5a	-193.79434
51	0xc4dc2c3b	-1761.3822
52	0xc681d514	-16618.54
53	0xca9e3b6d	-5.1849505e+06
54	0xc2e57f05	-114.748085
55	0xc65a14ee	-13957.232
56	0xc89e2d38	-323945.75
57	0xc915c54b	-613460.7

layer4.apply_func.weight f4 [6, 58]
0	0x457d48d1	4052.551
1	0x4909986c	563590.75
2	0x3f9d3162	1.2280695
3	0x47ae44c6	89225.55
4	0x4d00c8c3	1.3504005e+08
5	0x44111930	580.39355
6	0x45049b6a	2121.7134
7	0x43f4f720	489.93066
8	0x482894f0	172627.75
9	0x44b11449	1416.6339
10	0x4793034f	75270.62
11	0x43a07dc5	320.98257
12	0x435f415f	223.25536
13	0x4b788e58	1.6289368e+07
14	0x483e2110	194692.25
15	0x48341cae	184434.72
16	0x4383324f	262.39304
17	0x489a032d	315417.4
18	0x4323a5dc	163.64789
19	0x48852a8c	272724.38
20	0x4b46847f	1.3010047e+07
21	0x3efedb63	0.49776754
22	0x435da24f	221.63402
23	0x43bd5ce7	378.7258
24	0x4740f65a	49398.35
25	0xbd4d1ece	-0.050078206
26	0x4cfeda21	1.3361588e+08
27	0x4775656d	62821.426
28	0x4b2997f7	1.1114487e+07
29	0x49ea4d22	1.9193962e+06
30	0x48fc9388	517276.25
31	0x4364b9a3	228.72514
32	0x4303f94b	131.9738
33	0x47c5d4f7	101289.93
34	0x4850dcc2	213875.03
35	0x4cc09164	1.0096106e+08
36	0x4d0509ad	1.3950024e+08
37	0x4824fecb	168955.17
38	0x4da0629b	3.363521e+08
39	0x44db5bd4	1754.8696
40	0x4cbae19e	9.797963e+07
41	0x42a799ea	83.80061
42	0x421fbe15	39.935627
43	0x484101d5	197639.33
44	0x47dda5a7	113483.305
45	0x44c38f30	1564.4746
46	0x470daff2	36271.945
47	0x4c29b499	4.4487268e+07
48	0x4c46720b	5.2021292e+07
49	0x4d168099	1.5781314e+08
50	0x4be28d39	2.9694578e+07
51	0x449d913c	1260.5386
52	0x46aef510	22394.531
53	0x4bd1ddf0	2.750768e+07
54	0x4bb5ae48	2.3813264e+07
55	0x4841fb38	198636.88
56	0x478277b0	66799.375
57	0x4a9545f0	4.891384e+06
58	0x46068946	8610.318
59	0x49936e71	1.2077581e+06
60	0x404132d2	3.0187268
61	0x483bf43c	192464.94
62	0x4da3d206	3.435563e+08
63	0x44a91a8a	1352.8293
64	0x45a8add9	5397.731
65	0xc5c46f8f	-6285.945
66	0x48b452c6	369302.2
67	0x4560ad1f	3594.82
68	0x481e0643	161817.05
69	0x4449bade	806.9198
70	0x43ed2230	474.2671
71	0x4c07f32d	3.5638452e+07
72	0x48cb9ef7	417015.72
73	0x48c0e241	395026.03
74	0x440b7b27	557.92426
75	0x49254e4c	677092.75
76	0x43adebc2	347.84186
77	0x490ea344	584244.25
78	0x4bd97978	2.8504816e+07
79	0x3fa58957	1.2932538
80	0x43eb6c64	470.8468
81	0x447004c0	960.0742
82	0x47cde665	105420.79
83	0x3e0dfc3f	0.13865755
84	0x4d8b60fc	2.9229862e+08
85	0x48027e8c	133626.19
86	0x4bb9920a	2.4323092e+07
87	0x4a78efc7	4.0785778e+06
88	0x49875386	1.1085928e+06
89	0x43f2f8f4	485.94495
90	0x438c37f7	280.43723
91	0x4855423a	218376.9
92	0x48dfe755	458554.66
93	0x4d74f578	2.5685798e+08
94	0x4d918695	3.0518954e+08
95	0x48b0ae17	361840.72
96	0x4e2f6f67	7.358284e+08
97	0x458b58f1	4459.1177
98	0x4d6db2d5	2.4924501e+08
99	0x43321342	178.07523
100	0x42aa2f6f	85.09264
101	0x48cec483	423460.1
102	0x486f3fd3	244991.3
103	0x4577d390	3965.2227
104	0x479685a8	77067.31
105	0x4cb44945	9.4521896e+07
106	0x4cd2d1a9	1.10529864e+08
107	0x4dbf6f15	4.0146602e+08
108	0x4c901818	7.554682e+07
109	0x4547a4c9	3194.299
110	0x4739d486	47572.523
111	0x4c659e37	6.0192988e+07
112	0x4c671c14	6.0584016e+07
113	0x48d021d0	426254.5
114	0x4825f695	169946.33
115	0x4b239167	1.0719591e+07
116	0xc71dbf32	-40383.195
117	0x4a12dbe8	2.406138e+06
118	0x419d9c61	19.701357
119	0x48a1f02b	331649.34
120	0x4ef76d53	2.0755685e+09
121	0xc4e2d0e2	-1814.5276
122	0x46fecc37	32614.107
123	0x4518af1f	2442.945
124	0x493a0028	761858.5
125	0xc677e856	-15866.084
126	0x48931033	301185.6
127	0xc55646b6	-3428.4194
128	0x448b2529	1113.1613
129	0x4c1bdbb4	4.0857296e+07
130	0x494ce324	839218.25
131	0x49424404	795712.25
132	0x44a5054f	1320.1659
133	0x499ed1fd	1.3010556e+06
134	0x444c15de	816.3417
135	0x498f11d1	1.1720261e+06
136	0x4c022b63	3.4123148e+07
137	0x41051cac	8.3195
138	0x448a1bae	1104.865
139	0xc583770a	-4206.88
140	0x485ebe75	228089.83
141	0x3f81b1d6	1.0132396
142	0x4d9fa0db	3.347649e+08
143	0x489610cb	307334.34
144	0x4bd6a1e7	2.8132302e+07
145	0x4b11c0c4	9.552068e+06
146	0x4a06968c	2.205091e+06
147	0x448e8f8f	1140.4862
148	0x442509bd	660.15216
149	0x48b9f965	380875.16
150	0x495cc15c	904213.75
151	0x4eb90140	1.5519334e+09
152	0x4da7298a	3.5056467e+08
153	0x4932424f	730148.94
154	0x4e48e10b	8.425479e+08
155	0xc69b79a1	-19900.814
156	0x4eb35796	1.5044308e+09
157	0x43d564cb	426.78745
158	0x434a09ec	202.03876
159	0x494eb85c	846725.75
160	0x48ca1e91	413940.53
161	0xc687e3e2	-17393.941
162	0xc8b08a88	-361556.25
163	0xcdd37590	-4.4346214e+08
164	0x4d7754f5	2.5934626e+08
165	0x4f107ac0	2.4239636e+09
166	0x4dd9a4d4	4.5643226e+08
167	0xc65a02d6	-13952.709
168	0xc8591ed7	-222331.36
169	0x4c84fd86	6.972523e+07
170	0x4dae8a47	3.6603722e+08
171	0x49497958	825237.5
172	0x497ab0f8	1.0268315e+06
173	0x4b45dba8	1.2966824e+07
174	0x4614d7aa	9525.916
175	0x49a23341	1.3287441e+06
176	0xc1f9f588	-31.244888
177	0x484dab37	210604.86
178	0x4d9cf795	3.291839e+08
179	0x44adb5e2	1389.6838
180	0x45a19cd5	5171.604
181	0x44902bb1	1153.3654
182	0x48c6a953	406858.6
183	0x4557bce4	3451.8057
184	0x482d6311	177548.27
185	0x4442adb8	778.71436
186	0x44036621	525.59576
187	0x4c130d00	3.854848e+07
188	0x48e01b2c	458969.38
189	0x48d44c1e	434784.94
190	0x4412f8f4	587.8899
191	0x49359b36	743859.4
192	0x43c08458	385.03394
193	0x491cf865	642950.3
194	0x4beaf517	3.0796334e+07
195	0xc14de358	-12.868004
196	0x44026355	521.55206
197	0x44669406	922.31287
198	0x47e34c1d	116376.23
199	0xbfcb35a5	-1.5875746
200	0x4d96c5ca	3.161931e+08
201	0x481071f4	147911.81
202	0x4bc8ae0c	2.6303512e+07
203	0x4a89e3ce	4.518375e+06
204	0x4994df64	1.2195645e+06
205	0x44069a4e	538.411
206	0x4398399f	304.45016
207	0x486973da	239055.4
208	0x48f63ae3	504279.1
209	0x4d6ab59e	2.4611069e+08
210	0x4d9d6a0d	3.3012163e+08
211	0x48c27abb	398293.84
212	0x4e3dc57f	7.9595923e+08
213	0x4585a684	4276.8145
214	0x4d63c5f3	2.3883755e+08
215	0x432cfffd	172.99995
216	0x42b15f6f	88.68639
217	0x48e3834e	465946.44
218	0x4882cfbe	267901.94
219	0x456e0f0e	3808.941
220	0x47a6bba5	85367.29
221	0x4cc7be99	1.04723656e+08
222	0x4ce9926e	1.2245899e+08
223	0x4db76f79	3.84692e+08
224	0x4c8a10b0	7.238592e+07
225	0x453fe654	3070.3955
226	0x474de59b	52709.605
227	0x4c7854d6	6.5098584e+07
228	0x4c5d70a0	5.804915e+07
229	0x48e4b870	468419.5
230	0x481f04d0	162835.25
231	0x4b30ae9a	1.1579034e+07
232	0x462f08df	11202.218
233	0xcac5bf00	-6.479744e+06
234	0x409b8d59	4.8610044
235	0xc96ed152	-978197.1
236	0xcf3a17ce	-3.1221222e+09
237	0xc51da1b6	-2522.107
238	0xc73fa0a3	-49056.637
239	0x44a94c09	1354.3761
240	0xc9f53610	-2.00877e+06
241	0x45990cbd	4897.5923
242	0xc94e844c	-845892.75
243	0x446eee4f	955.7236
244	0xc52a14e3	-2721.3054
245	0xcd18273f	-1.595443e+08
246	0xca09187a	-2.2461745e+06
247	0xca01ea1b	-2.1285188e+06
248	0xc546d3ea	-3181.2446
249	0xca5aa6ab	-3.5823788e+06
250	0xc4f96d18	-1995.4092
251	0xca3fd59e	-3.1430155e+06
252	0xccf5fda2	-1.2897e+08
253	0x3fe873e7	1.816037
254	0xc528d516	-2701.3179
255	0x449f8e64	1276.4497

layer4.apply_func.bias f4 [6]
0	0xbe12064c	-0.14260215
1	0x3e0c3f4c	0.13696021
2	0x3e1d22d5	0.15345319
3	0x3e2ffe86	0.17186937
4	0xbddaa849	-0.10676629
5	0x3dccff17	0.10009592
